{"class_name": "Model", "config": {"name": "model_1", "layers": [{"name": "input_1", "class_name": "InputLayer", "config": {"batch_input_shape": [null, 224, 224, 3], "dtype": "float32", "sparse": false, "name": "input_1"}, "inbound_nodes": []}, {"name": "NASNet", "class_name": "Model", "config": {"name": "NASNet", "layers": [{"name": "input_2", "class_name": "InputLayer", "config": {"batch_input_shape": [null, 224, 224, 3], "dtype": "float32", "sparse": false, "name": "input_2"}, "inbound_nodes": []}, {"name": "stem_conv1", "class_name": "Conv2D", "config": {"name": "stem_conv1", "trainable": false, "filters": 32, "kernel_size": [3, 3], "strides": [2, 2], "padding": "valid", "data_format": "channels_last", "dilation_rate": [1, 1], "activation": "linear", "use_bias": false, "kernel_initializer": {"class_name": "VarianceScaling", "config": {"scale": 2.0, "mode": "fan_in", "distribution": "normal", "seed": null}}, "bias_initializer": {"class_name": "Zeros", "config": {}}, "kernel_regularizer": null, "bias_regularizer": null, "activity_regularizer": null, "kernel_constraint": null, "bias_constraint": null}, "inbound_nodes": [[["input_2", 0, 0, {}]]]}, {"name": "stem_bn1", "class_name": "BatchNormalization", "config": {"name": "stem_bn1", "trainable": false, "axis": -1, "momentum": 0.9997, "epsilon": 0.001, "center": true, "scale": true, "beta_initializer": {"class_name": "Zeros", "config": {}}, "gamma_initializer": {"class_name": "Ones", "config": {}}, "moving_mean_initializer": {"class_name": "Zeros", "config": {}}, "moving_variance_initializer": {"class_name": "Ones", "config": {}}, "beta_regularizer": null, "gamma_regularizer": null, "beta_constraint": null, "gamma_constraint": null}, "inbound_nodes": [[["stem_conv1", 0, 0, {}]]]}, {"name": "activation_1", "class_name": "Activation", "config": {"name": "activation_1", "trainable": false, "activation": "relu"}, "inbound_nodes": [[["stem_bn1", 0, 0, {}]]]}, {"name": "reduction_conv_1_stem_1", "class_name": "Conv2D", "config": {"name": "reduction_conv_1_stem_1", "trainable": false, "filters": 11, "kernel_size": [1, 1], "strides": [1, 1], "padding": "same", "data_format": "channels_last", "dilation_rate": [1, 1], "activation": "linear", "use_bias": false, "kernel_initializer": {"class_name": "VarianceScaling", "config": {"scale": 2.0, "mode": "fan_in", "distribution": "normal", "seed": null}}, "bias_initializer": {"class_name": "Zeros", "config": {}}, "kernel_regularizer": null, "bias_regularizer": null, "activity_regularizer": null, "kernel_constraint": null, "bias_constraint": null}, "inbound_nodes": [[["activation_1", 0, 0, {}]]]}, {"name": "reduction_bn_1_stem_1", "class_name": "BatchNormalization", "config": {"name": "reduction_bn_1_stem_1", "trainable": false, "axis": -1, "momentum": 0.9997, "epsilon": 0.001, "center": true, "scale": true, "beta_initializer": {"class_name": "Zeros", "config": {}}, "gamma_initializer": {"class_name": "Ones", "config": {}}, "moving_mean_initializer": {"class_name": "Zeros", "config": {}}, "moving_variance_initializer": {"class_name": "Ones", "config": {}}, "beta_regularizer": null, "gamma_regularizer": null, "beta_constraint": null, "gamma_constraint": null}, "inbound_nodes": [[["reduction_conv_1_stem_1", 0, 0, {}]]]}, {"name": "activation_2", "class_name": "Activation", "config": {"name": "activation_2", "trainable": false, "activation": "relu"}, "inbound_nodes": [[["reduction_bn_1_stem_1", 0, 0, {}]]]}, {"name": "activation_4", "class_name": "Activation", "config": {"name": "activation_4", "trainable": false, "activation": "relu"}, "inbound_nodes": [[["stem_bn1", 0, 0, {}]]]}, {"name": "separable_conv_1_pad_reduction_left1_stem_1", "class_name": "ZeroPadding2D", "config": {"name": "separable_conv_1_pad_reduction_left1_stem_1", "trainable": false, "padding": [[2, 2], [2, 2]], "data_format": "channels_last"}, "inbound_nodes": [[["activation_2", 0, 0, {}]]]}, {"name": "separable_conv_1_pad_reduction_right1_stem_1", "class_name": "ZeroPadding2D", "config": {"name": "separable_conv_1_pad_reduction_right1_stem_1", "trainable": false, "padding": [[3, 3], [3, 3]], "data_format": "channels_last"}, "inbound_nodes": [[["activation_4", 0, 0, {}]]]}, {"name": "separable_conv_1_reduction_left1_stem_1", "class_name": "SeparableConv2D", "config": {"name": "separable_conv_1_reduction_left1_stem_1", "trainable": false, "filters": 11, "kernel_size": [5, 5], "strides": [2, 2], "padding": "valid", "data_format": "channels_last", "dilation_rate": [1, 1], "activation": "linear", "use_bias": false, "bias_initializer": {"class_name": "Zeros", "config": {}}, "bias_regularizer": null, "activity_regularizer": null, "bias_constraint": null, "depth_multiplier": 1, "depthwise_initializer": {"class_name": "VarianceScaling", "config": {"scale": 1.0, "mode": "fan_avg", "distribution": "uniform", "seed": null}}, "pointwise_initializer": {"class_name": "VarianceScaling", "config": {"scale": 1.0, "mode": "fan_avg", "distribution": "uniform", "seed": null}}, "depthwise_regularizer": null, "pointwise_regularizer": null, "depthwise_constraint": null, "pointwise_constraint": null}, "inbound_nodes": [[["separable_conv_1_pad_reduction_left1_stem_1", 0, 0, {}]]]}, {"name": "separable_conv_1_reduction_right1_stem_1", "class_name": "SeparableConv2D", "config": {"name": "separable_conv_1_reduction_right1_stem_1", "trainable": false, "filters": 11, "kernel_size": [7, 7], "strides": [2, 2], "padding": "valid", "data_format": "channels_last", "dilation_rate": [1, 1], "activation": "linear", "use_bias": false, "bias_initializer": {"class_name": "Zeros", "config": {}}, "bias_regularizer": null, "activity_regularizer": null, "bias_constraint": null, "depth_multiplier": 1, "depthwise_initializer": {"class_name": "VarianceScaling", "config": {"scale": 1.0, "mode": "fan_avg", "distribution": "uniform", "seed": null}}, "pointwise_initializer": {"class_name": "VarianceScaling", "config": {"scale": 1.0, "mode": "fan_avg", "distribution": "uniform", "seed": null}}, "depthwise_regularizer": null, "pointwise_regularizer": null, "depthwise_constraint": null, "pointwise_constraint": null}, "inbound_nodes": [[["separable_conv_1_pad_reduction_right1_stem_1", 0, 0, {}]]]}, {"name": "separable_conv_1_bn_reduction_left1_stem_1", "class_name": "BatchNormalization", "config": {"name": "separable_conv_1_bn_reduction_left1_stem_1", "trainable": false, "axis": -1, "momentum": 0.9997, "epsilon": 0.001, "center": true, "scale": true, "beta_initializer": {"class_name": "Zeros", "config": {}}, "gamma_initializer": {"class_name": "Ones", "config": {}}, "moving_mean_initializer": {"class_name": "Zeros", "config": {}}, "moving_variance_initializer": {"class_name": "Ones", "config": {}}, "beta_regularizer": null, "gamma_regularizer": null, "beta_constraint": null, "gamma_constraint": null}, "inbound_nodes": [[["separable_conv_1_reduction_left1_stem_1", 0, 0, {}]]]}, {"name": "separable_conv_1_bn_reduction_right1_stem_1", "class_name": "BatchNormalization", "config": {"name": "separable_conv_1_bn_reduction_right1_stem_1", "trainable": false, "axis": -1, "momentum": 0.9997, "epsilon": 0.001, "center": true, "scale": true, "beta_initializer": {"class_name": "Zeros", "config": {}}, "gamma_initializer": {"class_name": "Ones", "config": {}}, "moving_mean_initializer": {"class_name": "Zeros", "config": {}}, "moving_variance_initializer": {"class_name": "Ones", "config": {}}, "beta_regularizer": null, "gamma_regularizer": null, "beta_constraint": null, "gamma_constraint": null}, "inbound_nodes": [[["separable_conv_1_reduction_right1_stem_1", 0, 0, {}]]]}, {"name": "activation_3", "class_name": "Activation", "config": {"name": "activation_3", "trainable": false, "activation": "relu"}, "inbound_nodes": [[["separable_conv_1_bn_reduction_left1_stem_1", 0, 0, {}]]]}, {"name": "activation_5", "class_name": "Activation", "config": {"name": "activation_5", "trainable": false, "activation": "relu"}, "inbound_nodes": [[["separable_conv_1_bn_reduction_right1_stem_1", 0, 0, {}]]]}, {"name": "separable_conv_2_reduction_left1_stem_1", "class_name": "SeparableConv2D", "config": {"name": "separable_conv_2_reduction_left1_stem_1", "trainable": false, "filters": 11, "kernel_size": [5, 5], "strides": [1, 1], "padding": "same", "data_format": "channels_last", "dilation_rate": [1, 1], "activation": "linear", "use_bias": false, "bias_initializer": {"class_name": "Zeros", "config": {}}, "bias_regularizer": null, "activity_regularizer": null, "bias_constraint": null, "depth_multiplier": 1, "depthwise_initializer": {"class_name": "VarianceScaling", "config": {"scale": 1.0, "mode": "fan_avg", "distribution": "uniform", "seed": null}}, "pointwise_initializer": {"class_name": "VarianceScaling", "config": {"scale": 1.0, "mode": "fan_avg", "distribution": "uniform", "seed": null}}, "depthwise_regularizer": null, "pointwise_regularizer": null, "depthwise_constraint": null, "pointwise_constraint": null}, "inbound_nodes": [[["activation_3", 0, 0, {}]]]}, {"name": "separable_conv_2_reduction_right1_stem_1", "class_name": "SeparableConv2D", "config": {"name": "separable_conv_2_reduction_right1_stem_1", "trainable": false, "filters": 11, "kernel_size": [7, 7], "strides": [1, 1], "padding": "same", "data_format": "channels_last", "dilation_rate": [1, 1], "activation": "linear", "use_bias": false, "bias_initializer": {"class_name": "Zeros", "config": {}}, "bias_regularizer": null, "activity_regularizer": null, "bias_constraint": null, "depth_multiplier": 1, "depthwise_initializer": {"class_name": "VarianceScaling", "config": {"scale": 1.0, "mode": "fan_avg", "distribution": "uniform", "seed": null}}, "pointwise_initializer": {"class_name": "VarianceScaling", "config": {"scale": 1.0, "mode": "fan_avg", "distribution": "uniform", "seed": null}}, "depthwise_regularizer": null, "pointwise_regularizer": null, "depthwise_constraint": null, "pointwise_constraint": null}, "inbound_nodes": [[["activation_5", 0, 0, {}]]]}, {"name": "activation_6", "class_name": "Activation", "config": {"name": "activation_6", "trainable": false, "activation": "relu"}, "inbound_nodes": [[["stem_bn1", 0, 0, {}]]]}, {"name": "separable_conv_2_bn_reduction_left1_stem_1", "class_name": "BatchNormalization", "config": {"name": "separable_conv_2_bn_reduction_left1_stem_1", "trainable": false, "axis": -1, "momentum": 0.9997, "epsilon": 0.001, "center": true, "scale": true, "beta_initializer": {"class_name": "Zeros", "config": {}}, "gamma_initializer": {"class_name": "Ones", "config": {}}, "moving_mean_initializer": {"class_name": "Zeros", "config": {}}, "moving_variance_initializer": {"class_name": "Ones", "config": {}}, "beta_regularizer": null, "gamma_regularizer": null, "beta_constraint": null, "gamma_constraint": null}, "inbound_nodes": [[["separable_conv_2_reduction_left1_stem_1", 0, 0, {}]]]}, {"name": "separable_conv_2_bn_reduction_right1_stem_1", "class_name": "BatchNormalization", "config": {"name": "separable_conv_2_bn_reduction_right1_stem_1", "trainable": false, "axis": -1, "momentum": 0.9997, "epsilon": 0.001, "center": true, "scale": true, "beta_initializer": {"class_name": "Zeros", "config": {}}, "gamma_initializer": {"class_name": "Ones", "config": {}}, "moving_mean_initializer": {"class_name": "Zeros", "config": {}}, "moving_variance_initializer": {"class_name": "Ones", "config": {}}, "beta_regularizer": null, "gamma_regularizer": null, "beta_constraint": null, "gamma_constraint": null}, "inbound_nodes": [[["separable_conv_2_reduction_right1_stem_1", 0, 0, {}]]]}, {"name": "separable_conv_1_pad_reduction_right2_stem_1", "class_name": "ZeroPadding2D", "config": {"name": "separable_conv_1_pad_reduction_right2_stem_1", "trainable": false, "padding": [[3, 3], [3, 3]], "data_format": "channels_last"}, "inbound_nodes": [[["activation_6", 0, 0, {}]]]}, {"name": "activation_8", "class_name": "Activation", "config": {"name": "activation_8", "trainable": false, "activation": "relu"}, "inbound_nodes": [[["stem_bn1", 0, 0, {}]]]}, {"name": "reduction_add_1_stem_1", "class_name": "Add", "config": {"name": "reduction_add_1_stem_1", "trainable": false}, "inbound_nodes": [[["separable_conv_2_bn_reduction_left1_stem_1", 0, 0, {}], ["separable_conv_2_bn_reduction_right1_stem_1", 0, 0, {}]]]}, {"name": "separable_conv_1_reduction_right2_stem_1", "class_name": "SeparableConv2D", "config": {"name": "separable_conv_1_reduction_right2_stem_1", "trainable": false, "filters": 11, "kernel_size": [7, 7], "strides": [2, 2], "padding": "valid", "data_format": "channels_last", "dilation_rate": [1, 1], "activation": "linear", "use_bias": false, "bias_initializer": {"class_name": "Zeros", "config": {}}, "bias_regularizer": null, "activity_regularizer": null, "bias_constraint": null, "depth_multiplier": 1, "depthwise_initializer": {"class_name": "VarianceScaling", "config": {"scale": 1.0, "mode": "fan_avg", "distribution": "uniform", "seed": null}}, "pointwise_initializer": {"class_name": "VarianceScaling", "config": {"scale": 1.0, "mode": "fan_avg", "distribution": "uniform", "seed": null}}, "depthwise_regularizer": null, "pointwise_regularizer": null, "depthwise_constraint": null, "pointwise_constraint": null}, "inbound_nodes": [[["separable_conv_1_pad_reduction_right2_stem_1", 0, 0, {}]]]}, {"name": "separable_conv_1_pad_reduction_right3_stem_1", "class_name": "ZeroPadding2D", "config": {"name": "separable_conv_1_pad_reduction_right3_stem_1", "trainable": false, "padding": [[2, 2], [2, 2]], "data_format": "channels_last"}, "inbound_nodes": [[["activation_8", 0, 0, {}]]]}, {"name": "activation_10", "class_name": "Activation", "config": {"name": "activation_10", "trainable": false, "activation": "relu"}, "inbound_nodes": [[["reduction_add_1_stem_1", 0, 0, {}]]]}, {"name": "separable_conv_1_bn_reduction_right2_stem_1", "class_name": "BatchNormalization", "config": {"name": "separable_conv_1_bn_reduction_right2_stem_1", "trainable": false, "axis": -1, "momentum": 0.9997, "epsilon": 0.001, "center": true, "scale": true, "beta_initializer": {"class_name": "Zeros", "config": {}}, "gamma_initializer": {"class_name": "Ones", "config": {}}, "moving_mean_initializer": {"class_name": "Zeros", "config": {}}, "moving_variance_initializer": {"class_name": "Ones", "config": {}}, "beta_regularizer": null, "gamma_regularizer": null, "beta_constraint": null, "gamma_constraint": null}, "inbound_nodes": [[["separable_conv_1_reduction_right2_stem_1", 0, 0, {}]]]}, {"name": "separable_conv_1_reduction_right3_stem_1", "class_name": "SeparableConv2D", "config": {"name": "separable_conv_1_reduction_right3_stem_1", "trainable": false, "filters": 11, "kernel_size": [5, 5], "strides": [2, 2], "padding": "valid", "data_format": "channels_last", "dilation_rate": [1, 1], "activation": "linear", "use_bias": false, "bias_initializer": {"class_name": "Zeros", "config": {}}, "bias_regularizer": null, "activity_regularizer": null, "bias_constraint": null, "depth_multiplier": 1, "depthwise_initializer": {"class_name": "VarianceScaling", "config": {"scale": 1.0, "mode": "fan_avg", "distribution": "uniform", "seed": null}}, "pointwise_initializer": {"class_name": "VarianceScaling", "config": {"scale": 1.0, "mode": "fan_avg", "distribution": "uniform", "seed": null}}, "depthwise_regularizer": null, "pointwise_regularizer": null, "depthwise_constraint": null, "pointwise_constraint": null}, "inbound_nodes": [[["separable_conv_1_pad_reduction_right3_stem_1", 0, 0, {}]]]}, {"name": "separable_conv_1_reduction_left4_stem_1", "class_name": "SeparableConv2D", "config": {"name": "separable_conv_1_reduction_left4_stem_1", "trainable": false, "filters": 11, "kernel_size": [3, 3], "strides": [1, 1], "padding": "same", "data_format": "channels_last", "dilation_rate": [1, 1], "activation": "linear", "use_bias": false, "bias_initializer": {"class_name": "Zeros", "config": {}}, "bias_regularizer": null, "activity_regularizer": null, "bias_constraint": null, "depth_multiplier": 1, "depthwise_initializer": {"class_name": "VarianceScaling", "config": {"scale": 1.0, "mode": "fan_avg", "distribution": "uniform", "seed": null}}, "pointwise_initializer": {"class_name": "VarianceScaling", "config": {"scale": 1.0, "mode": "fan_avg", "distribution": "uniform", "seed": null}}, "depthwise_regularizer": null, "pointwise_regularizer": null, "depthwise_constraint": null, "pointwise_constraint": null}, "inbound_nodes": [[["activation_10", 0, 0, {}]]]}, {"name": "activation_7", "class_name": "Activation", "config": {"name": "activation_7", "trainable": false, "activation": "relu"}, "inbound_nodes": [[["separable_conv_1_bn_reduction_right2_stem_1", 0, 0, {}]]]}, {"name": "separable_conv_1_bn_reduction_right3_stem_1", "class_name": "BatchNormalization", "config": {"name": "separable_conv_1_bn_reduction_right3_stem_1", "trainable": false, "axis": -1, "momentum": 0.9997, "epsilon": 0.001, "center": true, "scale": true, "beta_initializer": {"class_name": "Zeros", "config": {}}, "gamma_initializer": {"class_name": "Ones", "config": {}}, "moving_mean_initializer": {"class_name": "Zeros", "config": {}}, "moving_variance_initializer": {"class_name": "Ones", "config": {}}, "beta_regularizer": null, "gamma_regularizer": null, "beta_constraint": null, "gamma_constraint": null}, "inbound_nodes": [[["separable_conv_1_reduction_right3_stem_1", 0, 0, {}]]]}, {"name": "separable_conv_1_bn_reduction_left4_stem_1", "class_name": "BatchNormalization", "config": {"name": "separable_conv_1_bn_reduction_left4_stem_1", "trainable": false, "axis": -1, "momentum": 0.9997, "epsilon": 0.001, "center": true, "scale": true, "beta_initializer": {"class_name": "Zeros", "config": {}}, "gamma_initializer": {"class_name": "Ones", "config": {}}, "moving_mean_initializer": {"class_name": "Zeros", "config": {}}, "moving_variance_initializer": {"class_name": "Ones", "config": {}}, "beta_regularizer": null, "gamma_regularizer": null, "beta_constraint": null, "gamma_constraint": null}, "inbound_nodes": [[["separable_conv_1_reduction_left4_stem_1", 0, 0, {}]]]}, {"name": "reduction_pad_1_stem_1", "class_name": "ZeroPadding2D", "config": {"name": "reduction_pad_1_stem_1", "trainable": false, "padding": [[1, 1], [1, 1]], "data_format": "channels_last"}, "inbound_nodes": [[["reduction_bn_1_stem_1", 0, 0, {}]]]}, {"name": "separable_conv_2_reduction_right2_stem_1", "class_name": "SeparableConv2D", "config": {"name": "separable_conv_2_reduction_right2_stem_1", "trainable": false, "filters": 11, "kernel_size": [7, 7], "strides": [1, 1], "padding": "same", "data_format": "channels_last", "dilation_rate": [1, 1], "activation": "linear", "use_bias": false, "bias_initializer": {"class_name": "Zeros", "config": {}}, "bias_regularizer": null, "activity_regularizer": null, "bias_constraint": null, "depth_multiplier": 1, "depthwise_initializer": {"class_name": "VarianceScaling", "config": {"scale": 1.0, "mode": "fan_avg", "distribution": "uniform", "seed": null}}, "pointwise_initializer": {"class_name": "VarianceScaling", "config": {"scale": 1.0, "mode": "fan_avg", "distribution": "uniform", "seed": null}}, "depthwise_regularizer": null, "pointwise_regularizer": null, "depthwise_constraint": null, "pointwise_constraint": null}, "inbound_nodes": [[["activation_7", 0, 0, {}]]]}, {"name": "activation_9", "class_name": "Activation", "config": {"name": "activation_9", "trainable": false, "activation": "relu"}, "inbound_nodes": [[["separable_conv_1_bn_reduction_right3_stem_1", 0, 0, {}]]]}, {"name": "activation_11", "class_name": "Activation", "config": {"name": "activation_11", "trainable": false, "activation": "relu"}, "inbound_nodes": [[["separable_conv_1_bn_reduction_left4_stem_1", 0, 0, {}]]]}, {"name": "reduction_left2_stem_1", "class_name": "MaxPooling2D", "config": {"name": "reduction_left2_stem_1", "trainable": false, "pool_size": [3, 3], "padding": "valid", "strides": [2, 2], "data_format": "channels_last"}, "inbound_nodes": [[["reduction_pad_1_stem_1", 0, 0, {}]]]}, {"name": "separable_conv_2_bn_reduction_right2_stem_1", "class_name": "BatchNormalization", "config": {"name": "separable_conv_2_bn_reduction_right2_stem_1", "trainable": false, "axis": -1, "momentum": 0.9997, "epsilon": 0.001, "center": true, "scale": true, "beta_initializer": {"class_name": "Zeros", "config": {}}, "gamma_initializer": {"class_name": "Ones", "config": {}}, "moving_mean_initializer": {"class_name": "Zeros", "config": {}}, "moving_variance_initializer": {"class_name": "Ones", "config": {}}, "beta_regularizer": null, "gamma_regularizer": null, "beta_constraint": null, "gamma_constraint": null}, "inbound_nodes": [[["separable_conv_2_reduction_right2_stem_1", 0, 0, {}]]]}, {"name": "separable_conv_2_reduction_right3_stem_1", "class_name": "SeparableConv2D", "config": {"name": "separable_conv_2_reduction_right3_stem_1", "trainable": false, "filters": 11, "kernel_size": [5, 5], "strides": [1, 1], "padding": "same", "data_format": "channels_last", "dilation_rate": [1, 1], "activation": "linear", "use_bias": false, "bias_initializer": {"class_name": "Zeros", "config": {}}, "bias_regularizer": null, "activity_regularizer": null, "bias_constraint": null, "depth_multiplier": 1, "depthwise_initializer": {"class_name": "VarianceScaling", "config": {"scale": 1.0, "mode": "fan_avg", "distribution": "uniform", "seed": null}}, "pointwise_initializer": {"class_name": "VarianceScaling", "config": {"scale": 1.0, "mode": "fan_avg", "distribution": "uniform", "seed": null}}, "depthwise_regularizer": null, "pointwise_regularizer": null, "depthwise_constraint": null, "pointwise_constraint": null}, "inbound_nodes": [[["activation_9", 0, 0, {}]]]}, {"name": "separable_conv_2_reduction_left4_stem_1", "class_name": "SeparableConv2D", "config": {"name": "separable_conv_2_reduction_left4_stem_1", "trainable": false, "filters": 11, "kernel_size": [3, 3], "strides": [1, 1], "padding": "same", "data_format": "channels_last", "dilation_rate": [1, 1], "activation": "linear", "use_bias": false, "bias_initializer": {"class_name": "Zeros", "config": {}}, "bias_regularizer": null, "activity_regularizer": null, "bias_constraint": null, "depth_multiplier": 1, "depthwise_initializer": {"class_name": "VarianceScaling", "config": {"scale": 1.0, "mode": "fan_avg", "distribution": "uniform", "seed": null}}, "pointwise_initializer": {"class_name": "VarianceScaling", "config": {"scale": 1.0, "mode": "fan_avg", "distribution": "uniform", "seed": null}}, "depthwise_regularizer": null, "pointwise_regularizer": null, "depthwise_constraint": null, "pointwise_constraint": null}, "inbound_nodes": [[["activation_11", 0, 0, {}]]]}, {"name": "adjust_relu_1_stem_2", "class_name": "Activation", "config": {"name": "adjust_relu_1_stem_2", "trainable": false, "activation": "relu"}, "inbound_nodes": [[["stem_bn1", 0, 0, {}]]]}, {"name": "reduction_add_2_stem_1", "class_name": "Add", "config": {"name": "reduction_add_2_stem_1", "trainable": false}, "inbound_nodes": [[["reduction_left2_stem_1", 0, 0, {}], ["separable_conv_2_bn_reduction_right2_stem_1", 0, 0, {}]]]}, {"name": "reduction_left3_stem_1", "class_name": "AveragePooling2D", "config": {"name": "reduction_left3_stem_1", "trainable": false, "pool_size": [3, 3], "padding": "valid", "strides": [2, 2], "data_format": "channels_last"}, "inbound_nodes": [[["reduction_pad_1_stem_1", 0, 0, {}]]]}, {"name": "separable_conv_2_bn_reduction_right3_stem_1", "class_name": "BatchNormalization", "config": {"name": "separable_conv_2_bn_reduction_right3_stem_1", "trainable": false, "axis": -1, "momentum": 0.9997, "epsilon": 0.001, "center": true, "scale": true, "beta_initializer": {"class_name": "Zeros", "config": {}}, "gamma_initializer": {"class_name": "Ones", "config": {}}, "moving_mean_initializer": {"class_name": "Zeros", "config": {}}, "moving_variance_initializer": {"class_name": "Ones", "config": {}}, "beta_regularizer": null, "gamma_regularizer": null, "beta_constraint": null, "gamma_constraint": null}, "inbound_nodes": [[["separable_conv_2_reduction_right3_stem_1", 0, 0, {}]]]}, {"name": "reduction_left4_stem_1", "class_name": "AveragePooling2D", "config": {"name": "reduction_left4_stem_1", "trainable": false, "pool_size": [3, 3], "padding": "same", "strides": [1, 1], "data_format": "channels_last"}, "inbound_nodes": [[["reduction_add_1_stem_1", 0, 0, {}]]]}, {"name": "separable_conv_2_bn_reduction_left4_stem_1", "class_name": "BatchNormalization", "config": {"name": "separable_conv_2_bn_reduction_left4_stem_1", "trainable": false, "axis": -1, "momentum": 0.9997, "epsilon": 0.001, "center": true, "scale": true, "beta_initializer": {"class_name": "Zeros", "config": {}}, "gamma_initializer": {"class_name": "Ones", "config": {}}, "moving_mean_initializer": {"class_name": "Zeros", "config": {}}, "moving_variance_initializer": {"class_name": "Ones", "config": {}}, "beta_regularizer": null, "gamma_regularizer": null, "beta_constraint": null, "gamma_constraint": null}, "inbound_nodes": [[["separable_conv_2_reduction_left4_stem_1", 0, 0, {}]]]}, {"name": "reduction_right5_stem_1", "class_name": "MaxPooling2D", "config": {"name": "reduction_right5_stem_1", "trainable": false, "pool_size": [3, 3], "padding": "valid", "strides": [2, 2], "data_format": "channels_last"}, "inbound_nodes": [[["reduction_pad_1_stem_1", 0, 0, {}]]]}, {"name": "zero_padding2d_1", "class_name": "ZeroPadding2D", "config": {"name": "zero_padding2d_1", "trainable": false, "padding": [[0, 1], [0, 1]], "data_format": "channels_last"}, "inbound_nodes": [[["adjust_relu_1_stem_2", 0, 0, {}]]]}, {"name": "reduction_add3_stem_1", "class_name": "Add", "config": {"name": "reduction_add3_stem_1", "trainable": false}, "inbound_nodes": [[["reduction_left3_stem_1", 0, 0, {}], ["separable_conv_2_bn_reduction_right3_stem_1", 0, 0, {}]]]}, {"name": "add_1", "class_name": "Add", "config": {"name": "add_1", "trainable": false}, "inbound_nodes": [[["reduction_add_2_stem_1", 0, 0, {}], ["reduction_left4_stem_1", 0, 0, {}]]]}, {"name": "reduction_add4_stem_1", "class_name": "Add", "config": {"name": "reduction_add4_stem_1", "trainable": false}, "inbound_nodes": [[["separable_conv_2_bn_reduction_left4_stem_1", 0, 0, {}], ["reduction_right5_stem_1", 0, 0, {}]]]}, {"name": "cropping2d_1", "class_name": "Cropping2D", "config": {"name": "cropping2d_1", "trainable": false, "cropping": [[1, 0], [1, 0]], "data_format": "channels_last"}, "inbound_nodes": [[["zero_padding2d_1", 0, 0, {}]]]}, {"name": "reduction_concat_stem_1", "class_name": "Concatenate", "config": {"name": "reduction_concat_stem_1", "trainable": false, "axis": -1}, "inbound_nodes": [[["reduction_add_2_stem_1", 0, 0, {}], ["reduction_add3_stem_1", 0, 0, {}], ["add_1", 0, 0, {}], ["reduction_add4_stem_1", 0, 0, {}]]]}, {"name": "adjust_avg_pool_1_stem_2", "class_name": "AveragePooling2D", "config": {"name": "adjust_avg_pool_1_stem_2", "trainable": false, "pool_size": [1, 1], "padding": "valid", "strides": [2, 2], "data_format": "channels_last"}, "inbound_nodes": [[["adjust_relu_1_stem_2", 0, 0, {}]]]}, {"name": "adjust_avg_pool_2_stem_2", "class_name": "AveragePooling2D", "config": {"name": "adjust_avg_pool_2_stem_2", "trainable": false, "pool_size": [1, 1], "padding": "valid", "strides": [2, 2], "data_format": "channels_last"}, "inbound_nodes": [[["cropping2d_1", 0, 0, {}]]]}, {"name": "activation_12", "class_name": "Activation", "config": {"name": "activation_12", "trainable": false, "activation": "relu"}, "inbound_nodes": [[["reduction_concat_stem_1", 0, 0, {}]]]}, {"name": "adjust_conv_1_stem_2", "class_name": "Conv2D", "config": {"name": "adjust_conv_1_stem_2", "trainable": false, "filters": 11, "kernel_size": [1, 1], "strides": [1, 1], "padding": "same", "data_format": "channels_last", "dilation_rate": [1, 1], "activation": "linear", "use_bias": false, "kernel_initializer": {"class_name": "VarianceScaling", "config": {"scale": 2.0, "mode": "fan_in", "distribution": "normal", "seed": null}}, "bias_initializer": {"class_name": "Zeros", "config": {}}, "kernel_regularizer": null, "bias_regularizer": null, "activity_regularizer": null, "kernel_constraint": null, "bias_constraint": null}, "inbound_nodes": [[["adjust_avg_pool_1_stem_2", 0, 0, {}]]]}, {"name": "adjust_conv_2_stem_2", "class_name": "Conv2D", "config": {"name": "adjust_conv_2_stem_2", "trainable": false, "filters": 11, "kernel_size": [1, 1], "strides": [1, 1], "padding": "same", "data_format": "channels_last", "dilation_rate": [1, 1], "activation": "linear", "use_bias": false, "kernel_initializer": {"class_name": "VarianceScaling", "config": {"scale": 2.0, "mode": "fan_in", "distribution": "normal", "seed": null}}, "bias_initializer": {"class_name": "Zeros", "config": {}}, "kernel_regularizer": null, "bias_regularizer": null, "activity_regularizer": null, "kernel_constraint": null, "bias_constraint": null}, "inbound_nodes": [[["adjust_avg_pool_2_stem_2", 0, 0, {}]]]}, {"name": "reduction_conv_1_stem_2", "class_name": "Conv2D", "config": {"name": "reduction_conv_1_stem_2", "trainable": false, "filters": 22, "kernel_size": [1, 1], "strides": [1, 1], "padding": "same", "data_format": "channels_last", "dilation_rate": [1, 1], "activation": "linear", "use_bias": false, "kernel_initializer": {"class_name": "VarianceScaling", "config": {"scale": 2.0, "mode": "fan_in", "distribution": "normal", "seed": null}}, "bias_initializer": {"class_name": "Zeros", "config": {}}, "kernel_regularizer": null, "bias_regularizer": null, "activity_regularizer": null, "kernel_constraint": null, "bias_constraint": null}, "inbound_nodes": [[["activation_12", 0, 0, {}]]]}, {"name": "concatenate_1", "class_name": "Concatenate", "config": {"name": "concatenate_1", "trainable": false, "axis": -1}, "inbound_nodes": [[["adjust_conv_1_stem_2", 0, 0, {}], ["adjust_conv_2_stem_2", 0, 0, {}]]]}, {"name": "reduction_bn_1_stem_2", "class_name": "BatchNormalization", "config": {"name": "reduction_bn_1_stem_2", "trainable": false, "axis": -1, "momentum": 0.9997, "epsilon": 0.001, "center": true, "scale": true, "beta_initializer": {"class_name": "Zeros", "config": {}}, "gamma_initializer": {"class_name": "Ones", "config": {}}, "moving_mean_initializer": {"class_name": "Zeros", "config": {}}, "moving_variance_initializer": {"class_name": "Ones", "config": {}}, "beta_regularizer": null, "gamma_regularizer": null, "beta_constraint": null, "gamma_constraint": null}, "inbound_nodes": [[["reduction_conv_1_stem_2", 0, 0, {}]]]}, {"name": "adjust_bn_stem_2", "class_name": "BatchNormalization", "config": {"name": "adjust_bn_stem_2", "trainable": false, "axis": -1, "momentum": 0.9997, "epsilon": 0.001, "center": true, "scale": true, "beta_initializer": {"class_name": "Zeros", "config": {}}, "gamma_initializer": {"class_name": "Ones", "config": {}}, "moving_mean_initializer": {"class_name": "Zeros", "config": {}}, "moving_variance_initializer": {"class_name": "Ones", "config": {}}, "beta_regularizer": null, "gamma_regularizer": null, "beta_constraint": null, "gamma_constraint": null}, "inbound_nodes": [[["concatenate_1", 0, 0, {}]]]}, {"name": "activation_13", "class_name": "Activation", "config": {"name": "activation_13", "trainable": false, "activation": "relu"}, "inbound_nodes": [[["reduction_bn_1_stem_2", 0, 0, {}]]]}, {"name": "activation_15", "class_name": "Activation", "config": {"name": "activation_15", "trainable": false, "activation": "relu"}, "inbound_nodes": [[["adjust_bn_stem_2", 0, 0, {}]]]}, {"name": "separable_conv_1_pad_reduction_left1_stem_2", "class_name": "ZeroPadding2D", "config": {"name": "separable_conv_1_pad_reduction_left1_stem_2", "trainable": false, "padding": [[1, 2], [1, 2]], "data_format": "channels_last"}, "inbound_nodes": [[["activation_13", 0, 0, {}]]]}, {"name": "separable_conv_1_pad_reduction_right1_stem_2", "class_name": "ZeroPadding2D", "config": {"name": "separable_conv_1_pad_reduction_right1_stem_2", "trainable": false, "padding": [[2, 3], [2, 3]], "data_format": "channels_last"}, "inbound_nodes": [[["activation_15", 0, 0, {}]]]}, {"name": "separable_conv_1_reduction_left1_stem_2", "class_name": "SeparableConv2D", "config": {"name": "separable_conv_1_reduction_left1_stem_2", "trainable": false, "filters": 22, "kernel_size": [5, 5], "strides": [2, 2], "padding": "valid", "data_format": "channels_last", "dilation_rate": [1, 1], "activation": "linear", "use_bias": false, "bias_initializer": {"class_name": "Zeros", "config": {}}, "bias_regularizer": null, "activity_regularizer": null, "bias_constraint": null, "depth_multiplier": 1, "depthwise_initializer": {"class_name": "VarianceScaling", "config": {"scale": 1.0, "mode": "fan_avg", "distribution": "uniform", "seed": null}}, "pointwise_initializer": {"class_name": "VarianceScaling", "config": {"scale": 1.0, "mode": "fan_avg", "distribution": "uniform", "seed": null}}, "depthwise_regularizer": null, "pointwise_regularizer": null, "depthwise_constraint": null, "pointwise_constraint": null}, "inbound_nodes": [[["separable_conv_1_pad_reduction_left1_stem_2", 0, 0, {}]]]}, {"name": "separable_conv_1_reduction_right1_stem_2", "class_name": "SeparableConv2D", "config": {"name": "separable_conv_1_reduction_right1_stem_2", "trainable": false, "filters": 22, "kernel_size": [7, 7], "strides": [2, 2], "padding": "valid", "data_format": "channels_last", "dilation_rate": [1, 1], "activation": "linear", "use_bias": false, "bias_initializer": {"class_name": "Zeros", "config": {}}, "bias_regularizer": null, "activity_regularizer": null, "bias_constraint": null, "depth_multiplier": 1, "depthwise_initializer": {"class_name": "VarianceScaling", "config": {"scale": 1.0, "mode": "fan_avg", "distribution": "uniform", "seed": null}}, "pointwise_initializer": {"class_name": "VarianceScaling", "config": {"scale": 1.0, "mode": "fan_avg", "distribution": "uniform", "seed": null}}, "depthwise_regularizer": null, "pointwise_regularizer": null, "depthwise_constraint": null, "pointwise_constraint": null}, "inbound_nodes": [[["separable_conv_1_pad_reduction_right1_stem_2", 0, 0, {}]]]}, {"name": "separable_conv_1_bn_reduction_left1_stem_2", "class_name": "BatchNormalization", "config": {"name": "separable_conv_1_bn_reduction_left1_stem_2", "trainable": false, "axis": -1, "momentum": 0.9997, "epsilon": 0.001, "center": true, "scale": true, "beta_initializer": {"class_name": "Zeros", "config": {}}, "gamma_initializer": {"class_name": "Ones", "config": {}}, "moving_mean_initializer": {"class_name": "Zeros", "config": {}}, "moving_variance_initializer": {"class_name": "Ones", "config": {}}, "beta_regularizer": null, "gamma_regularizer": null, "beta_constraint": null, "gamma_constraint": null}, "inbound_nodes": [[["separable_conv_1_reduction_left1_stem_2", 0, 0, {}]]]}, {"name": "separable_conv_1_bn_reduction_right1_stem_2", "class_name": "BatchNormalization", "config": {"name": "separable_conv_1_bn_reduction_right1_stem_2", "trainable": false, "axis": -1, "momentum": 0.9997, "epsilon": 0.001, "center": true, "scale": true, "beta_initializer": {"class_name": "Zeros", "config": {}}, "gamma_initializer": {"class_name": "Ones", "config": {}}, "moving_mean_initializer": {"class_name": "Zeros", "config": {}}, "moving_variance_initializer": {"class_name": "Ones", "config": {}}, "beta_regularizer": null, "gamma_regularizer": null, "beta_constraint": null, "gamma_constraint": null}, "inbound_nodes": [[["separable_conv_1_reduction_right1_stem_2", 0, 0, {}]]]}, {"name": "activation_14", "class_name": "Activation", "config": {"name": "activation_14", "trainable": false, "activation": "relu"}, "inbound_nodes": [[["separable_conv_1_bn_reduction_left1_stem_2", 0, 0, {}]]]}, {"name": "activation_16", "class_name": "Activation", "config": {"name": "activation_16", "trainable": false, "activation": "relu"}, "inbound_nodes": [[["separable_conv_1_bn_reduction_right1_stem_2", 0, 0, {}]]]}, {"name": "separable_conv_2_reduction_left1_stem_2", "class_name": "SeparableConv2D", "config": {"name": "separable_conv_2_reduction_left1_stem_2", "trainable": false, "filters": 22, "kernel_size": [5, 5], "strides": [1, 1], "padding": "same", "data_format": "channels_last", "dilation_rate": [1, 1], "activation": "linear", "use_bias": false, "bias_initializer": {"class_name": "Zeros", "config": {}}, "bias_regularizer": null, "activity_regularizer": null, "bias_constraint": null, "depth_multiplier": 1, "depthwise_initializer": {"class_name": "VarianceScaling", "config": {"scale": 1.0, "mode": "fan_avg", "distribution": "uniform", "seed": null}}, "pointwise_initializer": {"class_name": "VarianceScaling", "config": {"scale": 1.0, "mode": "fan_avg", "distribution": "uniform", "seed": null}}, "depthwise_regularizer": null, "pointwise_regularizer": null, "depthwise_constraint": null, "pointwise_constraint": null}, "inbound_nodes": [[["activation_14", 0, 0, {}]]]}, {"name": "separable_conv_2_reduction_right1_stem_2", "class_name": "SeparableConv2D", "config": {"name": "separable_conv_2_reduction_right1_stem_2", "trainable": false, "filters": 22, "kernel_size": [7, 7], "strides": [1, 1], "padding": "same", "data_format": "channels_last", "dilation_rate": [1, 1], "activation": "linear", "use_bias": false, "bias_initializer": {"class_name": "Zeros", "config": {}}, "bias_regularizer": null, "activity_regularizer": null, "bias_constraint": null, "depth_multiplier": 1, "depthwise_initializer": {"class_name": "VarianceScaling", "config": {"scale": 1.0, "mode": "fan_avg", "distribution": "uniform", "seed": null}}, "pointwise_initializer": {"class_name": "VarianceScaling", "config": {"scale": 1.0, "mode": "fan_avg", "distribution": "uniform", "seed": null}}, "depthwise_regularizer": null, "pointwise_regularizer": null, "depthwise_constraint": null, "pointwise_constraint": null}, "inbound_nodes": [[["activation_16", 0, 0, {}]]]}, {"name": "activation_17", "class_name": "Activation", "config": {"name": "activation_17", "trainable": false, "activation": "relu"}, "inbound_nodes": [[["adjust_bn_stem_2", 0, 0, {}]]]}, {"name": "separable_conv_2_bn_reduction_left1_stem_2", "class_name": "BatchNormalization", "config": {"name": "separable_conv_2_bn_reduction_left1_stem_2", "trainable": false, "axis": -1, "momentum": 0.9997, "epsilon": 0.001, "center": true, "scale": true, "beta_initializer": {"class_name": "Zeros", "config": {}}, "gamma_initializer": {"class_name": "Ones", "config": {}}, "moving_mean_initializer": {"class_name": "Zeros", "config": {}}, "moving_variance_initializer": {"class_name": "Ones", "config": {}}, "beta_regularizer": null, "gamma_regularizer": null, "beta_constraint": null, "gamma_constraint": null}, "inbound_nodes": [[["separable_conv_2_reduction_left1_stem_2", 0, 0, {}]]]}, {"name": "separable_conv_2_bn_reduction_right1_stem_2", "class_name": "BatchNormalization", "config": {"name": "separable_conv_2_bn_reduction_right1_stem_2", "trainable": false, "axis": -1, "momentum": 0.9997, "epsilon": 0.001, "center": true, "scale": true, "beta_initializer": {"class_name": "Zeros", "config": {}}, "gamma_initializer": {"class_name": "Ones", "config": {}}, "moving_mean_initializer": {"class_name": "Zeros", "config": {}}, "moving_variance_initializer": {"class_name": "Ones", "config": {}}, "beta_regularizer": null, "gamma_regularizer": null, "beta_constraint": null, "gamma_constraint": null}, "inbound_nodes": [[["separable_conv_2_reduction_right1_stem_2", 0, 0, {}]]]}, {"name": "separable_conv_1_pad_reduction_right2_stem_2", "class_name": "ZeroPadding2D", "config": {"name": "separable_conv_1_pad_reduction_right2_stem_2", "trainable": false, "padding": [[2, 3], [2, 3]], "data_format": "channels_last"}, "inbound_nodes": [[["activation_17", 0, 0, {}]]]}, {"name": "activation_19", "class_name": "Activation", "config": {"name": "activation_19", "trainable": false, "activation": "relu"}, "inbound_nodes": [[["adjust_bn_stem_2", 0, 0, {}]]]}, {"name": "reduction_add_1_stem_2", "class_name": "Add", "config": {"name": "reduction_add_1_stem_2", "trainable": false}, "inbound_nodes": [[["separable_conv_2_bn_reduction_left1_stem_2", 0, 0, {}], ["separable_conv_2_bn_reduction_right1_stem_2", 0, 0, {}]]]}, {"name": "separable_conv_1_reduction_right2_stem_2", "class_name": "SeparableConv2D", "config": {"name": "separable_conv_1_reduction_right2_stem_2", "trainable": false, "filters": 22, "kernel_size": [7, 7], "strides": [2, 2], "padding": "valid", "data_format": "channels_last", "dilation_rate": [1, 1], "activation": "linear", "use_bias": false, "bias_initializer": {"class_name": "Zeros", "config": {}}, "bias_regularizer": null, "activity_regularizer": null, "bias_constraint": null, "depth_multiplier": 1, "depthwise_initializer": {"class_name": "VarianceScaling", "config": {"scale": 1.0, "mode": "fan_avg", "distribution": "uniform", "seed": null}}, "pointwise_initializer": {"class_name": "VarianceScaling", "config": {"scale": 1.0, "mode": "fan_avg", "distribution": "uniform", "seed": null}}, "depthwise_regularizer": null, "pointwise_regularizer": null, "depthwise_constraint": null, "pointwise_constraint": null}, "inbound_nodes": [[["separable_conv_1_pad_reduction_right2_stem_2", 0, 0, {}]]]}, {"name": "separable_conv_1_pad_reduction_right3_stem_2", "class_name": "ZeroPadding2D", "config": {"name": "separable_conv_1_pad_reduction_right3_stem_2", "trainable": false, "padding": [[1, 2], [1, 2]], "data_format": "channels_last"}, "inbound_nodes": [[["activation_19", 0, 0, {}]]]}, {"name": "activation_21", "class_name": "Activation", "config": {"name": "activation_21", "trainable": false, "activation": "relu"}, "inbound_nodes": [[["reduction_add_1_stem_2", 0, 0, {}]]]}, {"name": "separable_conv_1_bn_reduction_right2_stem_2", "class_name": "BatchNormalization", "config": {"name": "separable_conv_1_bn_reduction_right2_stem_2", "trainable": false, "axis": -1, "momentum": 0.9997, "epsilon": 0.001, "center": true, "scale": true, "beta_initializer": {"class_name": "Zeros", "config": {}}, "gamma_initializer": {"class_name": "Ones", "config": {}}, "moving_mean_initializer": {"class_name": "Zeros", "config": {}}, "moving_variance_initializer": {"class_name": "Ones", "config": {}}, "beta_regularizer": null, "gamma_regularizer": null, "beta_constraint": null, "gamma_constraint": null}, "inbound_nodes": [[["separable_conv_1_reduction_right2_stem_2", 0, 0, {}]]]}, {"name": "separable_conv_1_reduction_right3_stem_2", "class_name": "SeparableConv2D", "config": {"name": "separable_conv_1_reduction_right3_stem_2", "trainable": false, "filters": 22, "kernel_size": [5, 5], "strides": [2, 2], "padding": "valid", "data_format": "channels_last", "dilation_rate": [1, 1], "activation": "linear", "use_bias": false, "bias_initializer": {"class_name": "Zeros", "config": {}}, "bias_regularizer": null, "activity_regularizer": null, "bias_constraint": null, "depth_multiplier": 1, "depthwise_initializer": {"class_name": "VarianceScaling", "config": {"scale": 1.0, "mode": "fan_avg", "distribution": "uniform", "seed": null}}, "pointwise_initializer": {"class_name": "VarianceScaling", "config": {"scale": 1.0, "mode": "fan_avg", "distribution": "uniform", "seed": null}}, "depthwise_regularizer": null, "pointwise_regularizer": null, "depthwise_constraint": null, "pointwise_constraint": null}, "inbound_nodes": [[["separable_conv_1_pad_reduction_right3_stem_2", 0, 0, {}]]]}, {"name": "separable_conv_1_reduction_left4_stem_2", "class_name": "SeparableConv2D", "config": {"name": "separable_conv_1_reduction_left4_stem_2", "trainable": false, "filters": 22, "kernel_size": [3, 3], "strides": [1, 1], "padding": "same", "data_format": "channels_last", "dilation_rate": [1, 1], "activation": "linear", "use_bias": false, "bias_initializer": {"class_name": "Zeros", "config": {}}, "bias_regularizer": null, "activity_regularizer": null, "bias_constraint": null, "depth_multiplier": 1, "depthwise_initializer": {"class_name": "VarianceScaling", "config": {"scale": 1.0, "mode": "fan_avg", "distribution": "uniform", "seed": null}}, "pointwise_initializer": {"class_name": "VarianceScaling", "config": {"scale": 1.0, "mode": "fan_avg", "distribution": "uniform", "seed": null}}, "depthwise_regularizer": null, "pointwise_regularizer": null, "depthwise_constraint": null, "pointwise_constraint": null}, "inbound_nodes": [[["activation_21", 0, 0, {}]]]}, {"name": "activation_18", "class_name": "Activation", "config": {"name": "activation_18", "trainable": false, "activation": "relu"}, "inbound_nodes": [[["separable_conv_1_bn_reduction_right2_stem_2", 0, 0, {}]]]}, {"name": "separable_conv_1_bn_reduction_right3_stem_2", "class_name": "BatchNormalization", "config": {"name": "separable_conv_1_bn_reduction_right3_stem_2", "trainable": false, "axis": -1, "momentum": 0.9997, "epsilon": 0.001, "center": true, "scale": true, "beta_initializer": {"class_name": "Zeros", "config": {}}, "gamma_initializer": {"class_name": "Ones", "config": {}}, "moving_mean_initializer": {"class_name": "Zeros", "config": {}}, "moving_variance_initializer": {"class_name": "Ones", "config": {}}, "beta_regularizer": null, "gamma_regularizer": null, "beta_constraint": null, "gamma_constraint": null}, "inbound_nodes": [[["separable_conv_1_reduction_right3_stem_2", 0, 0, {}]]]}, {"name": "separable_conv_1_bn_reduction_left4_stem_2", "class_name": "BatchNormalization", "config": {"name": "separable_conv_1_bn_reduction_left4_stem_2", "trainable": false, "axis": -1, "momentum": 0.9997, "epsilon": 0.001, "center": true, "scale": true, "beta_initializer": {"class_name": "Zeros", "config": {}}, "gamma_initializer": {"class_name": "Ones", "config": {}}, "moving_mean_initializer": {"class_name": "Zeros", "config": {}}, "moving_variance_initializer": {"class_name": "Ones", "config": {}}, "beta_regularizer": null, "gamma_regularizer": null, "beta_constraint": null, "gamma_constraint": null}, "inbound_nodes": [[["separable_conv_1_reduction_left4_stem_2", 0, 0, {}]]]}, {"name": "reduction_pad_1_stem_2", "class_name": "ZeroPadding2D", "config": {"name": "reduction_pad_1_stem_2", "trainable": false, "padding": [[0, 1], [0, 1]], "data_format": "channels_last"}, "inbound_nodes": [[["reduction_bn_1_stem_2", 0, 0, {}]]]}, {"name": "separable_conv_2_reduction_right2_stem_2", "class_name": "SeparableConv2D", "config": {"name": "separable_conv_2_reduction_right2_stem_2", "trainable": false, "filters": 22, "kernel_size": [7, 7], "strides": [1, 1], "padding": "same", "data_format": "channels_last", "dilation_rate": [1, 1], "activation": "linear", "use_bias": false, "bias_initializer": {"class_name": "Zeros", "config": {}}, "bias_regularizer": null, "activity_regularizer": null, "bias_constraint": null, "depth_multiplier": 1, "depthwise_initializer": {"class_name": "VarianceScaling", "config": {"scale": 1.0, "mode": "fan_avg", "distribution": "uniform", "seed": null}}, "pointwise_initializer": {"class_name": "VarianceScaling", "config": {"scale": 1.0, "mode": "fan_avg", "distribution": "uniform", "seed": null}}, "depthwise_regularizer": null, "pointwise_regularizer": null, "depthwise_constraint": null, "pointwise_constraint": null}, "inbound_nodes": [[["activation_18", 0, 0, {}]]]}, {"name": "activation_20", "class_name": "Activation", "config": {"name": "activation_20", "trainable": false, "activation": "relu"}, "inbound_nodes": [[["separable_conv_1_bn_reduction_right3_stem_2", 0, 0, {}]]]}, {"name": "activation_22", "class_name": "Activation", "config": {"name": "activation_22", "trainable": false, "activation": "relu"}, "inbound_nodes": [[["separable_conv_1_bn_reduction_left4_stem_2", 0, 0, {}]]]}, {"name": "reduction_left2_stem_2", "class_name": "MaxPooling2D", "config": {"name": "reduction_left2_stem_2", "trainable": false, "pool_size": [3, 3], "padding": "valid", "strides": [2, 2], "data_format": "channels_last"}, "inbound_nodes": [[["reduction_pad_1_stem_2", 0, 0, {}]]]}, {"name": "separable_conv_2_bn_reduction_right2_stem_2", "class_name": "BatchNormalization", "config": {"name": "separable_conv_2_bn_reduction_right2_stem_2", "trainable": false, "axis": -1, "momentum": 0.9997, "epsilon": 0.001, "center": true, "scale": true, "beta_initializer": {"class_name": "Zeros", "config": {}}, "gamma_initializer": {"class_name": "Ones", "config": {}}, "moving_mean_initializer": {"class_name": "Zeros", "config": {}}, "moving_variance_initializer": {"class_name": "Ones", "config": {}}, "beta_regularizer": null, "gamma_regularizer": null, "beta_constraint": null, "gamma_constraint": null}, "inbound_nodes": [[["separable_conv_2_reduction_right2_stem_2", 0, 0, {}]]]}, {"name": "separable_conv_2_reduction_right3_stem_2", "class_name": "SeparableConv2D", "config": {"name": "separable_conv_2_reduction_right3_stem_2", "trainable": false, "filters": 22, "kernel_size": [5, 5], "strides": [1, 1], "padding": "same", "data_format": "channels_last", "dilation_rate": [1, 1], "activation": "linear", "use_bias": false, "bias_initializer": {"class_name": "Zeros", "config": {}}, "bias_regularizer": null, "activity_regularizer": null, "bias_constraint": null, "depth_multiplier": 1, "depthwise_initializer": {"class_name": "VarianceScaling", "config": {"scale": 1.0, "mode": "fan_avg", "distribution": "uniform", "seed": null}}, "pointwise_initializer": {"class_name": "VarianceScaling", "config": {"scale": 1.0, "mode": "fan_avg", "distribution": "uniform", "seed": null}}, "depthwise_regularizer": null, "pointwise_regularizer": null, "depthwise_constraint": null, "pointwise_constraint": null}, "inbound_nodes": [[["activation_20", 0, 0, {}]]]}, {"name": "separable_conv_2_reduction_left4_stem_2", "class_name": "SeparableConv2D", "config": {"name": "separable_conv_2_reduction_left4_stem_2", "trainable": false, "filters": 22, "kernel_size": [3, 3], "strides": [1, 1], "padding": "same", "data_format": "channels_last", "dilation_rate": [1, 1], "activation": "linear", "use_bias": false, "bias_initializer": {"class_name": "Zeros", "config": {}}, "bias_regularizer": null, "activity_regularizer": null, "bias_constraint": null, "depth_multiplier": 1, "depthwise_initializer": {"class_name": "VarianceScaling", "config": {"scale": 1.0, "mode": "fan_avg", "distribution": "uniform", "seed": null}}, "pointwise_initializer": {"class_name": "VarianceScaling", "config": {"scale": 1.0, "mode": "fan_avg", "distribution": "uniform", "seed": null}}, "depthwise_regularizer": null, "pointwise_regularizer": null, "depthwise_constraint": null, "pointwise_constraint": null}, "inbound_nodes": [[["activation_22", 0, 0, {}]]]}, {"name": "adjust_relu_1_0", "class_name": "Activation", "config": {"name": "adjust_relu_1_0", "trainable": false, "activation": "relu"}, "inbound_nodes": [[["reduction_concat_stem_1", 0, 0, {}]]]}, {"name": "reduction_add_2_stem_2", "class_name": "Add", "config": {"name": "reduction_add_2_stem_2", "trainable": false}, "inbound_nodes": [[["reduction_left2_stem_2", 0, 0, {}], ["separable_conv_2_bn_reduction_right2_stem_2", 0, 0, {}]]]}, {"name": "reduction_left3_stem_2", "class_name": "AveragePooling2D", "config": {"name": "reduction_left3_stem_2", "trainable": false, "pool_size": [3, 3], "padding": "valid", "strides": [2, 2], "data_format": "channels_last"}, "inbound_nodes": [[["reduction_pad_1_stem_2", 0, 0, {}]]]}, {"name": "separable_conv_2_bn_reduction_right3_stem_2", "class_name": "BatchNormalization", "config": {"name": "separable_conv_2_bn_reduction_right3_stem_2", "trainable": false, "axis": -1, "momentum": 0.9997, "epsilon": 0.001, "center": true, "scale": true, "beta_initializer": {"class_name": "Zeros", "config": {}}, "gamma_initializer": {"class_name": "Ones", "config": {}}, "moving_mean_initializer": {"class_name": "Zeros", "config": {}}, "moving_variance_initializer": {"class_name": "Ones", "config": {}}, "beta_regularizer": null, "gamma_regularizer": null, "beta_constraint": null, "gamma_constraint": null}, "inbound_nodes": [[["separable_conv_2_reduction_right3_stem_2", 0, 0, {}]]]}, {"name": "reduction_left4_stem_2", "class_name": "AveragePooling2D", "config": {"name": "reduction_left4_stem_2", "trainable": false, "pool_size": [3, 3], "padding": "same", "strides": [1, 1], "data_format": "channels_last"}, "inbound_nodes": [[["reduction_add_1_stem_2", 0, 0, {}]]]}, {"name": "separable_conv_2_bn_reduction_left4_stem_2", "class_name": "BatchNormalization", "config": {"name": "separable_conv_2_bn_reduction_left4_stem_2", "trainable": false, "axis": -1, "momentum": 0.9997, "epsilon": 0.001, "center": true, "scale": true, "beta_initializer": {"class_name": "Zeros", "config": {}}, "gamma_initializer": {"class_name": "Ones", "config": {}}, "moving_mean_initializer": {"class_name": "Zeros", "config": {}}, "moving_variance_initializer": {"class_name": "Ones", "config": {}}, "beta_regularizer": null, "gamma_regularizer": null, "beta_constraint": null, "gamma_constraint": null}, "inbound_nodes": [[["separable_conv_2_reduction_left4_stem_2", 0, 0, {}]]]}, {"name": "reduction_right5_stem_2", "class_name": "MaxPooling2D", "config": {"name": "reduction_right5_stem_2", "trainable": false, "pool_size": [3, 3], "padding": "valid", "strides": [2, 2], "data_format": "channels_last"}, "inbound_nodes": [[["reduction_pad_1_stem_2", 0, 0, {}]]]}, {"name": "zero_padding2d_2", "class_name": "ZeroPadding2D", "config": {"name": "zero_padding2d_2", "trainable": false, "padding": [[0, 1], [0, 1]], "data_format": "channels_last"}, "inbound_nodes": [[["adjust_relu_1_0", 0, 0, {}]]]}, {"name": "reduction_add3_stem_2", "class_name": "Add", "config": {"name": "reduction_add3_stem_2", "trainable": false}, "inbound_nodes": [[["reduction_left3_stem_2", 0, 0, {}], ["separable_conv_2_bn_reduction_right3_stem_2", 0, 0, {}]]]}, {"name": "add_2", "class_name": "Add", "config": {"name": "add_2", "trainable": false}, "inbound_nodes": [[["reduction_add_2_stem_2", 0, 0, {}], ["reduction_left4_stem_2", 0, 0, {}]]]}, {"name": "reduction_add4_stem_2", "class_name": "Add", "config": {"name": "reduction_add4_stem_2", "trainable": false}, "inbound_nodes": [[["separable_conv_2_bn_reduction_left4_stem_2", 0, 0, {}], ["reduction_right5_stem_2", 0, 0, {}]]]}, {"name": "cropping2d_2", "class_name": "Cropping2D", "config": {"name": "cropping2d_2", "trainable": false, "cropping": [[1, 0], [1, 0]], "data_format": "channels_last"}, "inbound_nodes": [[["zero_padding2d_2", 0, 0, {}]]]}, {"name": "reduction_concat_stem_2", "class_name": "Concatenate", "config": {"name": "reduction_concat_stem_2", "trainable": false, "axis": -1}, "inbound_nodes": [[["reduction_add_2_stem_2", 0, 0, {}], ["reduction_add3_stem_2", 0, 0, {}], ["add_2", 0, 0, {}], ["reduction_add4_stem_2", 0, 0, {}]]]}, {"name": "adjust_avg_pool_1_0", "class_name": "AveragePooling2D", "config": {"name": "adjust_avg_pool_1_0", "trainable": false, "pool_size": [1, 1], "padding": "valid", "strides": [2, 2], "data_format": "channels_last"}, "inbound_nodes": [[["adjust_relu_1_0", 0, 0, {}]]]}, {"name": "adjust_avg_pool_2_0", "class_name": "AveragePooling2D", "config": {"name": "adjust_avg_pool_2_0", "trainable": false, "pool_size": [1, 1], "padding": "valid", "strides": [2, 2], "data_format": "channels_last"}, "inbound_nodes": [[["cropping2d_2", 0, 0, {}]]]}, {"name": "adjust_conv_1_0", "class_name": "Conv2D", "config": {"name": "adjust_conv_1_0", "trainable": false, "filters": 22, "kernel_size": [1, 1], "strides": [1, 1], "padding": "same", "data_format": "channels_last", "dilation_rate": [1, 1], "activation": "linear", "use_bias": false, "kernel_initializer": {"class_name": "VarianceScaling", "config": {"scale": 2.0, "mode": "fan_in", "distribution": "normal", "seed": null}}, "bias_initializer": {"class_name": "Zeros", "config": {}}, "kernel_regularizer": null, "bias_regularizer": null, "activity_regularizer": null, "kernel_constraint": null, "bias_constraint": null}, "inbound_nodes": [[["adjust_avg_pool_1_0", 0, 0, {}]]]}, {"name": "adjust_conv_2_0", "class_name": "Conv2D", "config": {"name": "adjust_conv_2_0", "trainable": false, "filters": 22, "kernel_size": [1, 1], "strides": [1, 1], "padding": "same", "data_format": "channels_last", "dilation_rate": [1, 1], "activation": "linear", "use_bias": false, "kernel_initializer": {"class_name": "VarianceScaling", "config": {"scale": 2.0, "mode": "fan_in", "distribution": "normal", "seed": null}}, "bias_initializer": {"class_name": "Zeros", "config": {}}, "kernel_regularizer": null, "bias_regularizer": null, "activity_regularizer": null, "kernel_constraint": null, "bias_constraint": null}, "inbound_nodes": [[["adjust_avg_pool_2_0", 0, 0, {}]]]}, {"name": "activation_23", "class_name": "Activation", "config": {"name": "activation_23", "trainable": false, "activation": "relu"}, "inbound_nodes": [[["reduction_concat_stem_2", 0, 0, {}]]]}, {"name": "concatenate_2", "class_name": "Concatenate", "config": {"name": "concatenate_2", "trainable": false, "axis": -1}, "inbound_nodes": [[["adjust_conv_1_0", 0, 0, {}], ["adjust_conv_2_0", 0, 0, {}]]]}, {"name": "normal_conv_1_0", "class_name": "Conv2D", "config": {"name": "normal_conv_1_0", "trainable": false, "filters": 44, "kernel_size": [1, 1], "strides": [1, 1], "padding": "same", "data_format": "channels_last", "dilation_rate": [1, 1], "activation": "linear", "use_bias": false, "kernel_initializer": {"class_name": "VarianceScaling", "config": {"scale": 2.0, "mode": "fan_in", "distribution": "normal", "seed": null}}, "bias_initializer": {"class_name": "Zeros", "config": {}}, "kernel_regularizer": null, "bias_regularizer": null, "activity_regularizer": null, "kernel_constraint": null, "bias_constraint": null}, "inbound_nodes": [[["activation_23", 0, 0, {}]]]}, {"name": "adjust_bn_0", "class_name": "BatchNormalization", "config": {"name": "adjust_bn_0", "trainable": false, "axis": -1, "momentum": 0.9997, "epsilon": 0.001, "center": true, "scale": true, "beta_initializer": {"class_name": "Zeros", "config": {}}, "gamma_initializer": {"class_name": "Ones", "config": {}}, "moving_mean_initializer": {"class_name": "Zeros", "config": {}}, "moving_variance_initializer": {"class_name": "Ones", "config": {}}, "beta_regularizer": null, "gamma_regularizer": null, "beta_constraint": null, "gamma_constraint": null}, "inbound_nodes": [[["concatenate_2", 0, 0, {}]]]}, {"name": "normal_bn_1_0", "class_name": "BatchNormalization", "config": {"name": "normal_bn_1_0", "trainable": false, "axis": -1, "momentum": 0.9997, "epsilon": 0.001, "center": true, "scale": true, "beta_initializer": {"class_name": "Zeros", "config": {}}, "gamma_initializer": {"class_name": "Ones", "config": {}}, "moving_mean_initializer": {"class_name": "Zeros", "config": {}}, "moving_variance_initializer": {"class_name": "Ones", "config": {}}, "beta_regularizer": null, "gamma_regularizer": null, "beta_constraint": null, "gamma_constraint": null}, "inbound_nodes": [[["normal_conv_1_0", 0, 0, {}]]]}, {"name": "activation_24", "class_name": "Activation", "config": {"name": "activation_24", "trainable": false, "activation": "relu"}, "inbound_nodes": [[["normal_bn_1_0", 0, 0, {}]]]}, {"name": "activation_26", "class_name": "Activation", "config": {"name": "activation_26", "trainable": false, "activation": "relu"}, "inbound_nodes": [[["adjust_bn_0", 0, 0, {}]]]}, {"name": "activation_28", "class_name": "Activation", "config": {"name": "activation_28", "trainable": false, "activation": "relu"}, "inbound_nodes": [[["adjust_bn_0", 0, 0, {}]]]}, {"name": "activation_30", "class_name": "Activation", "config": {"name": "activation_30", "trainable": false, "activation": "relu"}, "inbound_nodes": [[["adjust_bn_0", 0, 0, {}]]]}, {"name": "activation_32", "class_name": "Activation", "config": {"name": "activation_32", "trainable": false, "activation": "relu"}, "inbound_nodes": [[["normal_bn_1_0", 0, 0, {}]]]}, {"name": "separable_conv_1_normal_left1_0", "class_name": "SeparableConv2D", "config": {"name": "separable_conv_1_normal_left1_0", "trainable": false, "filters": 44, "kernel_size": [5, 5], "strides": [1, 1], "padding": "same", "data_format": "channels_last", "dilation_rate": [1, 1], "activation": "linear", "use_bias": false, "bias_initializer": {"class_name": "Zeros", "config": {}}, "bias_regularizer": null, "activity_regularizer": null, "bias_constraint": null, "depth_multiplier": 1, "depthwise_initializer": {"class_name": "VarianceScaling", "config": {"scale": 1.0, "mode": "fan_avg", "distribution": "uniform", "seed": null}}, "pointwise_initializer": {"class_name": "VarianceScaling", "config": {"scale": 1.0, "mode": "fan_avg", "distribution": "uniform", "seed": null}}, "depthwise_regularizer": null, "pointwise_regularizer": null, "depthwise_constraint": null, "pointwise_constraint": null}, "inbound_nodes": [[["activation_24", 0, 0, {}]]]}, {"name": "separable_conv_1_normal_right1_0", "class_name": "SeparableConv2D", "config": {"name": "separable_conv_1_normal_right1_0", "trainable": false, "filters": 44, "kernel_size": [3, 3], "strides": [1, 1], "padding": "same", "data_format": "channels_last", "dilation_rate": [1, 1], "activation": "linear", "use_bias": false, "bias_initializer": {"class_name": "Zeros", "config": {}}, "bias_regularizer": null, "activity_regularizer": null, "bias_constraint": null, "depth_multiplier": 1, "depthwise_initializer": {"class_name": "VarianceScaling", "config": {"scale": 1.0, "mode": "fan_avg", "distribution": "uniform", "seed": null}}, "pointwise_initializer": {"class_name": "VarianceScaling", "config": {"scale": 1.0, "mode": "fan_avg", "distribution": "uniform", "seed": null}}, "depthwise_regularizer": null, "pointwise_regularizer": null, "depthwise_constraint": null, "pointwise_constraint": null}, "inbound_nodes": [[["activation_26", 0, 0, {}]]]}, {"name": "separable_conv_1_normal_left2_0", "class_name": "SeparableConv2D", "config": {"name": "separable_conv_1_normal_left2_0", "trainable": false, "filters": 44, "kernel_size": [5, 5], "strides": [1, 1], "padding": "same", "data_format": "channels_last", "dilation_rate": [1, 1], "activation": "linear", "use_bias": false, "bias_initializer": {"class_name": "Zeros", "config": {}}, "bias_regularizer": null, "activity_regularizer": null, "bias_constraint": null, "depth_multiplier": 1, "depthwise_initializer": {"class_name": "VarianceScaling", "config": {"scale": 1.0, "mode": "fan_avg", "distribution": "uniform", "seed": null}}, "pointwise_initializer": {"class_name": "VarianceScaling", "config": {"scale": 1.0, "mode": "fan_avg", "distribution": "uniform", "seed": null}}, "depthwise_regularizer": null, "pointwise_regularizer": null, "depthwise_constraint": null, "pointwise_constraint": null}, "inbound_nodes": [[["activation_28", 0, 0, {}]]]}, {"name": "separable_conv_1_normal_right2_0", "class_name": "SeparableConv2D", "config": {"name": "separable_conv_1_normal_right2_0", "trainable": false, "filters": 44, "kernel_size": [3, 3], "strides": [1, 1], "padding": "same", "data_format": "channels_last", "dilation_rate": [1, 1], "activation": "linear", "use_bias": false, "bias_initializer": {"class_name": "Zeros", "config": {}}, "bias_regularizer": null, "activity_regularizer": null, "bias_constraint": null, "depth_multiplier": 1, "depthwise_initializer": {"class_name": "VarianceScaling", "config": {"scale": 1.0, "mode": "fan_avg", "distribution": "uniform", "seed": null}}, "pointwise_initializer": {"class_name": "VarianceScaling", "config": {"scale": 1.0, "mode": "fan_avg", "distribution": "uniform", "seed": null}}, "depthwise_regularizer": null, "pointwise_regularizer": null, "depthwise_constraint": null, "pointwise_constraint": null}, "inbound_nodes": [[["activation_30", 0, 0, {}]]]}, {"name": "separable_conv_1_normal_left5_0", "class_name": "SeparableConv2D", "config": {"name": "separable_conv_1_normal_left5_0", "trainable": false, "filters": 44, "kernel_size": [3, 3], "strides": [1, 1], "padding": "same", "data_format": "channels_last", "dilation_rate": [1, 1], "activation": "linear", "use_bias": false, "bias_initializer": {"class_name": "Zeros", "config": {}}, "bias_regularizer": null, "activity_regularizer": null, "bias_constraint": null, "depth_multiplier": 1, "depthwise_initializer": {"class_name": "VarianceScaling", "config": {"scale": 1.0, "mode": "fan_avg", "distribution": "uniform", "seed": null}}, "pointwise_initializer": {"class_name": "VarianceScaling", "config": {"scale": 1.0, "mode": "fan_avg", "distribution": "uniform", "seed": null}}, "depthwise_regularizer": null, "pointwise_regularizer": null, "depthwise_constraint": null, "pointwise_constraint": null}, "inbound_nodes": [[["activation_32", 0, 0, {}]]]}, {"name": "separable_conv_1_bn_normal_left1_0", "class_name": "BatchNormalization", "config": {"name": "separable_conv_1_bn_normal_left1_0", "trainable": false, "axis": -1, "momentum": 0.9997, "epsilon": 0.001, "center": true, "scale": true, "beta_initializer": {"class_name": "Zeros", "config": {}}, "gamma_initializer": {"class_name": "Ones", "config": {}}, "moving_mean_initializer": {"class_name": "Zeros", "config": {}}, "moving_variance_initializer": {"class_name": "Ones", "config": {}}, "beta_regularizer": null, "gamma_regularizer": null, "beta_constraint": null, "gamma_constraint": null}, "inbound_nodes": [[["separable_conv_1_normal_left1_0", 0, 0, {}]]]}, {"name": "separable_conv_1_bn_normal_right1_0", "class_name": "BatchNormalization", "config": {"name": "separable_conv_1_bn_normal_right1_0", "trainable": false, "axis": -1, "momentum": 0.9997, "epsilon": 0.001, "center": true, "scale": true, "beta_initializer": {"class_name": "Zeros", "config": {}}, "gamma_initializer": {"class_name": "Ones", "config": {}}, "moving_mean_initializer": {"class_name": "Zeros", "config": {}}, "moving_variance_initializer": {"class_name": "Ones", "config": {}}, "beta_regularizer": null, "gamma_regularizer": null, "beta_constraint": null, "gamma_constraint": null}, "inbound_nodes": [[["separable_conv_1_normal_right1_0", 0, 0, {}]]]}, {"name": "separable_conv_1_bn_normal_left2_0", "class_name": "BatchNormalization", "config": {"name": "separable_conv_1_bn_normal_left2_0", "trainable": false, "axis": -1, "momentum": 0.9997, "epsilon": 0.001, "center": true, "scale": true, "beta_initializer": {"class_name": "Zeros", "config": {}}, "gamma_initializer": {"class_name": "Ones", "config": {}}, "moving_mean_initializer": {"class_name": "Zeros", "config": {}}, "moving_variance_initializer": {"class_name": "Ones", "config": {}}, "beta_regularizer": null, "gamma_regularizer": null, "beta_constraint": null, "gamma_constraint": null}, "inbound_nodes": [[["separable_conv_1_normal_left2_0", 0, 0, {}]]]}, {"name": "separable_conv_1_bn_normal_right2_0", "class_name": "BatchNormalization", "config": {"name": "separable_conv_1_bn_normal_right2_0", "trainable": false, "axis": -1, "momentum": 0.9997, "epsilon": 0.001, "center": true, "scale": true, "beta_initializer": {"class_name": "Zeros", "config": {}}, "gamma_initializer": {"class_name": "Ones", "config": {}}, "moving_mean_initializer": {"class_name": "Zeros", "config": {}}, "moving_variance_initializer": {"class_name": "Ones", "config": {}}, "beta_regularizer": null, "gamma_regularizer": null, "beta_constraint": null, "gamma_constraint": null}, "inbound_nodes": [[["separable_conv_1_normal_right2_0", 0, 0, {}]]]}, {"name": "separable_conv_1_bn_normal_left5_0", "class_name": "BatchNormalization", "config": {"name": "separable_conv_1_bn_normal_left5_0", "trainable": false, "axis": -1, "momentum": 0.9997, "epsilon": 0.001, "center": true, "scale": true, "beta_initializer": {"class_name": "Zeros", "config": {}}, "gamma_initializer": {"class_name": "Ones", "config": {}}, "moving_mean_initializer": {"class_name": "Zeros", "config": {}}, "moving_variance_initializer": {"class_name": "Ones", "config": {}}, "beta_regularizer": null, "gamma_regularizer": null, "beta_constraint": null, "gamma_constraint": null}, "inbound_nodes": [[["separable_conv_1_normal_left5_0", 0, 0, {}]]]}, {"name": "activation_25", "class_name": "Activation", "config": {"name": "activation_25", "trainable": false, "activation": "relu"}, "inbound_nodes": [[["separable_conv_1_bn_normal_left1_0", 0, 0, {}]]]}, {"name": "activation_27", "class_name": "Activation", "config": {"name": "activation_27", "trainable": false, "activation": "relu"}, "inbound_nodes": [[["separable_conv_1_bn_normal_right1_0", 0, 0, {}]]]}, {"name": "activation_29", "class_name": "Activation", "config": {"name": "activation_29", "trainable": false, "activation": "relu"}, "inbound_nodes": [[["separable_conv_1_bn_normal_left2_0", 0, 0, {}]]]}, {"name": "activation_31", "class_name": "Activation", "config": {"name": "activation_31", "trainable": false, "activation": "relu"}, "inbound_nodes": [[["separable_conv_1_bn_normal_right2_0", 0, 0, {}]]]}, {"name": "activation_33", "class_name": "Activation", "config": {"name": "activation_33", "trainable": false, "activation": "relu"}, "inbound_nodes": [[["separable_conv_1_bn_normal_left5_0", 0, 0, {}]]]}, {"name": "separable_conv_2_normal_left1_0", "class_name": "SeparableConv2D", "config": {"name": "separable_conv_2_normal_left1_0", "trainable": false, "filters": 44, "kernel_size": [5, 5], "strides": [1, 1], "padding": "same", "data_format": "channels_last", "dilation_rate": [1, 1], "activation": "linear", "use_bias": false, "bias_initializer": {"class_name": "Zeros", "config": {}}, "bias_regularizer": null, "activity_regularizer": null, "bias_constraint": null, "depth_multiplier": 1, "depthwise_initializer": {"class_name": "VarianceScaling", "config": {"scale": 1.0, "mode": "fan_avg", "distribution": "uniform", "seed": null}}, "pointwise_initializer": {"class_name": "VarianceScaling", "config": {"scale": 1.0, "mode": "fan_avg", "distribution": "uniform", "seed": null}}, "depthwise_regularizer": null, "pointwise_regularizer": null, "depthwise_constraint": null, "pointwise_constraint": null}, "inbound_nodes": [[["activation_25", 0, 0, {}]]]}, {"name": "separable_conv_2_normal_right1_0", "class_name": "SeparableConv2D", "config": {"name": "separable_conv_2_normal_right1_0", "trainable": false, "filters": 44, "kernel_size": [3, 3], "strides": [1, 1], "padding": "same", "data_format": "channels_last", "dilation_rate": [1, 1], "activation": "linear", "use_bias": false, "bias_initializer": {"class_name": "Zeros", "config": {}}, "bias_regularizer": null, "activity_regularizer": null, "bias_constraint": null, "depth_multiplier": 1, "depthwise_initializer": {"class_name": "VarianceScaling", "config": {"scale": 1.0, "mode": "fan_avg", "distribution": "uniform", "seed": null}}, "pointwise_initializer": {"class_name": "VarianceScaling", "config": {"scale": 1.0, "mode": "fan_avg", "distribution": "uniform", "seed": null}}, "depthwise_regularizer": null, "pointwise_regularizer": null, "depthwise_constraint": null, "pointwise_constraint": null}, "inbound_nodes": [[["activation_27", 0, 0, {}]]]}, {"name": "separable_conv_2_normal_left2_0", "class_name": "SeparableConv2D", "config": {"name": "separable_conv_2_normal_left2_0", "trainable": false, "filters": 44, "kernel_size": [5, 5], "strides": [1, 1], "padding": "same", "data_format": "channels_last", "dilation_rate": [1, 1], "activation": "linear", "use_bias": false, "bias_initializer": {"class_name": "Zeros", "config": {}}, "bias_regularizer": null, "activity_regularizer": null, "bias_constraint": null, "depth_multiplier": 1, "depthwise_initializer": {"class_name": "VarianceScaling", "config": {"scale": 1.0, "mode": "fan_avg", "distribution": "uniform", "seed": null}}, "pointwise_initializer": {"class_name": "VarianceScaling", "config": {"scale": 1.0, "mode": "fan_avg", "distribution": "uniform", "seed": null}}, "depthwise_regularizer": null, "pointwise_regularizer": null, "depthwise_constraint": null, "pointwise_constraint": null}, "inbound_nodes": [[["activation_29", 0, 0, {}]]]}, {"name": "separable_conv_2_normal_right2_0", "class_name": "SeparableConv2D", "config": {"name": "separable_conv_2_normal_right2_0", "trainable": false, "filters": 44, "kernel_size": [3, 3], "strides": [1, 1], "padding": "same", "data_format": "channels_last", "dilation_rate": [1, 1], "activation": "linear", "use_bias": false, "bias_initializer": {"class_name": "Zeros", "config": {}}, "bias_regularizer": null, "activity_regularizer": null, "bias_constraint": null, "depth_multiplier": 1, "depthwise_initializer": {"class_name": "VarianceScaling", "config": {"scale": 1.0, "mode": "fan_avg", "distribution": "uniform", "seed": null}}, "pointwise_initializer": {"class_name": "VarianceScaling", "config": {"scale": 1.0, "mode": "fan_avg", "distribution": "uniform", "seed": null}}, "depthwise_regularizer": null, "pointwise_regularizer": null, "depthwise_constraint": null, "pointwise_constraint": null}, "inbound_nodes": [[["activation_31", 0, 0, {}]]]}, {"name": "separable_conv_2_normal_left5_0", "class_name": "SeparableConv2D", "config": {"name": "separable_conv_2_normal_left5_0", "trainable": false, "filters": 44, "kernel_size": [3, 3], "strides": [1, 1], "padding": "same", "data_format": "channels_last", "dilation_rate": [1, 1], "activation": "linear", "use_bias": false, "bias_initializer": {"class_name": "Zeros", "config": {}}, "bias_regularizer": null, "activity_regularizer": null, "bias_constraint": null, "depth_multiplier": 1, "depthwise_initializer": {"class_name": "VarianceScaling", "config": {"scale": 1.0, "mode": "fan_avg", "distribution": "uniform", "seed": null}}, "pointwise_initializer": {"class_name": "VarianceScaling", "config": {"scale": 1.0, "mode": "fan_avg", "distribution": "uniform", "seed": null}}, "depthwise_regularizer": null, "pointwise_regularizer": null, "depthwise_constraint": null, "pointwise_constraint": null}, "inbound_nodes": [[["activation_33", 0, 0, {}]]]}, {"name": "separable_conv_2_bn_normal_left1_0", "class_name": "BatchNormalization", "config": {"name": "separable_conv_2_bn_normal_left1_0", "trainable": false, "axis": -1, "momentum": 0.9997, "epsilon": 0.001, "center": true, "scale": true, "beta_initializer": {"class_name": "Zeros", "config": {}}, "gamma_initializer": {"class_name": "Ones", "config": {}}, "moving_mean_initializer": {"class_name": "Zeros", "config": {}}, "moving_variance_initializer": {"class_name": "Ones", "config": {}}, "beta_regularizer": null, "gamma_regularizer": null, "beta_constraint": null, "gamma_constraint": null}, "inbound_nodes": [[["separable_conv_2_normal_left1_0", 0, 0, {}]]]}, {"name": "separable_conv_2_bn_normal_right1_0", "class_name": "BatchNormalization", "config": {"name": "separable_conv_2_bn_normal_right1_0", "trainable": false, "axis": -1, "momentum": 0.9997, "epsilon": 0.001, "center": true, "scale": true, "beta_initializer": {"class_name": "Zeros", "config": {}}, "gamma_initializer": {"class_name": "Ones", "config": {}}, "moving_mean_initializer": {"class_name": "Zeros", "config": {}}, "moving_variance_initializer": {"class_name": "Ones", "config": {}}, "beta_regularizer": null, "gamma_regularizer": null, "beta_constraint": null, "gamma_constraint": null}, "inbound_nodes": [[["separable_conv_2_normal_right1_0", 0, 0, {}]]]}, {"name": "separable_conv_2_bn_normal_left2_0", "class_name": "BatchNormalization", "config": {"name": "separable_conv_2_bn_normal_left2_0", "trainable": false, "axis": -1, "momentum": 0.9997, "epsilon": 0.001, "center": true, "scale": true, "beta_initializer": {"class_name": "Zeros", "config": {}}, "gamma_initializer": {"class_name": "Ones", "config": {}}, "moving_mean_initializer": {"class_name": "Zeros", "config": {}}, "moving_variance_initializer": {"class_name": "Ones", "config": {}}, "beta_regularizer": null, "gamma_regularizer": null, "beta_constraint": null, "gamma_constraint": null}, "inbound_nodes": [[["separable_conv_2_normal_left2_0", 0, 0, {}]]]}, {"name": "separable_conv_2_bn_normal_right2_0", "class_name": "BatchNormalization", "config": {"name": "separable_conv_2_bn_normal_right2_0", "trainable": false, "axis": -1, "momentum": 0.9997, "epsilon": 0.001, "center": true, "scale": true, "beta_initializer": {"class_name": "Zeros", "config": {}}, "gamma_initializer": {"class_name": "Ones", "config": {}}, "moving_mean_initializer": {"class_name": "Zeros", "config": {}}, "moving_variance_initializer": {"class_name": "Ones", "config": {}}, "beta_regularizer": null, "gamma_regularizer": null, "beta_constraint": null, "gamma_constraint": null}, "inbound_nodes": [[["separable_conv_2_normal_right2_0", 0, 0, {}]]]}, {"name": "normal_left3_0", "class_name": "AveragePooling2D", "config": {"name": "normal_left3_0", "trainable": false, "pool_size": [3, 3], "padding": "same", "strides": [1, 1], "data_format": "channels_last"}, "inbound_nodes": [[["normal_bn_1_0", 0, 0, {}]]]}, {"name": "normal_left4_0", "class_name": "AveragePooling2D", "config": {"name": "normal_left4_0", "trainable": false, "pool_size": [3, 3], "padding": "same", "strides": [1, 1], "data_format": "channels_last"}, "inbound_nodes": [[["adjust_bn_0", 0, 0, {}]]]}, {"name": "normal_right4_0", "class_name": "AveragePooling2D", "config": {"name": "normal_right4_0", "trainable": false, "pool_size": [3, 3], "padding": "same", "strides": [1, 1], "data_format": "channels_last"}, "inbound_nodes": [[["adjust_bn_0", 0, 0, {}]]]}, {"name": "separable_conv_2_bn_normal_left5_0", "class_name": "BatchNormalization", "config": {"name": "separable_conv_2_bn_normal_left5_0", "trainable": false, "axis": -1, "momentum": 0.9997, "epsilon": 0.001, "center": true, "scale": true, "beta_initializer": {"class_name": "Zeros", "config": {}}, "gamma_initializer": {"class_name": "Ones", "config": {}}, "moving_mean_initializer": {"class_name": "Zeros", "config": {}}, "moving_variance_initializer": {"class_name": "Ones", "config": {}}, "beta_regularizer": null, "gamma_regularizer": null, "beta_constraint": null, "gamma_constraint": null}, "inbound_nodes": [[["separable_conv_2_normal_left5_0", 0, 0, {}]]]}, {"name": "normal_add_1_0", "class_name": "Add", "config": {"name": "normal_add_1_0", "trainable": false}, "inbound_nodes": [[["separable_conv_2_bn_normal_left1_0", 0, 0, {}], ["separable_conv_2_bn_normal_right1_0", 0, 0, {}]]]}, {"name": "normal_add_2_0", "class_name": "Add", "config": {"name": "normal_add_2_0", "trainable": false}, "inbound_nodes": [[["separable_conv_2_bn_normal_left2_0", 0, 0, {}], ["separable_conv_2_bn_normal_right2_0", 0, 0, {}]]]}, {"name": "normal_add_3_0", "class_name": "Add", "config": {"name": "normal_add_3_0", "trainable": false}, "inbound_nodes": [[["normal_left3_0", 0, 0, {}], ["adjust_bn_0", 0, 0, {}]]]}, {"name": "normal_add_4_0", "class_name": "Add", "config": {"name": "normal_add_4_0", "trainable": false}, "inbound_nodes": [[["normal_left4_0", 0, 0, {}], ["normal_right4_0", 0, 0, {}]]]}, {"name": "normal_add_5_0", "class_name": "Add", "config": {"name": "normal_add_5_0", "trainable": false}, "inbound_nodes": [[["separable_conv_2_bn_normal_left5_0", 0, 0, {}], ["normal_bn_1_0", 0, 0, {}]]]}, {"name": "normal_concat_0", "class_name": "Concatenate", "config": {"name": "normal_concat_0", "trainable": false, "axis": -1}, "inbound_nodes": [[["adjust_bn_0", 0, 0, {}], ["normal_add_1_0", 0, 0, {}], ["normal_add_2_0", 0, 0, {}], ["normal_add_3_0", 0, 0, {}], ["normal_add_4_0", 0, 0, {}], ["normal_add_5_0", 0, 0, {}]]]}, {"name": "activation_34", "class_name": "Activation", "config": {"name": "activation_34", "trainable": false, "activation": "relu"}, "inbound_nodes": [[["reduction_concat_stem_2", 0, 0, {}]]]}, {"name": "activation_35", "class_name": "Activation", "config": {"name": "activation_35", "trainable": false, "activation": "relu"}, "inbound_nodes": [[["normal_concat_0", 0, 0, {}]]]}, {"name": "adjust_conv_projection_1", "class_name": "Conv2D", "config": {"name": "adjust_conv_projection_1", "trainable": false, "filters": 44, "kernel_size": [1, 1], "strides": [1, 1], "padding": "same", "data_format": "channels_last", "dilation_rate": [1, 1], "activation": "linear", "use_bias": false, "kernel_initializer": {"class_name": "VarianceScaling", "config": {"scale": 2.0, "mode": "fan_in", "distribution": "normal", "seed": null}}, "bias_initializer": {"class_name": "Zeros", "config": {}}, "kernel_regularizer": null, "bias_regularizer": null, "activity_regularizer": null, "kernel_constraint": null, "bias_constraint": null}, "inbound_nodes": [[["activation_34", 0, 0, {}]]]}, {"name": "normal_conv_1_1", "class_name": "Conv2D", "config": {"name": "normal_conv_1_1", "trainable": false, "filters": 44, "kernel_size": [1, 1], "strides": [1, 1], "padding": "same", "data_format": "channels_last", "dilation_rate": [1, 1], "activation": "linear", "use_bias": false, "kernel_initializer": {"class_name": "VarianceScaling", "config": {"scale": 2.0, "mode": "fan_in", "distribution": "normal", "seed": null}}, "bias_initializer": {"class_name": "Zeros", "config": {}}, "kernel_regularizer": null, "bias_regularizer": null, "activity_regularizer": null, "kernel_constraint": null, "bias_constraint": null}, "inbound_nodes": [[["activation_35", 0, 0, {}]]]}, {"name": "adjust_bn_1", "class_name": "BatchNormalization", "config": {"name": "adjust_bn_1", "trainable": false, "axis": -1, "momentum": 0.9997, "epsilon": 0.001, "center": true, "scale": true, "beta_initializer": {"class_name": "Zeros", "config": {}}, "gamma_initializer": {"class_name": "Ones", "config": {}}, "moving_mean_initializer": {"class_name": "Zeros", "config": {}}, "moving_variance_initializer": {"class_name": "Ones", "config": {}}, "beta_regularizer": null, "gamma_regularizer": null, "beta_constraint": null, "gamma_constraint": null}, "inbound_nodes": [[["adjust_conv_projection_1", 0, 0, {}]]]}, {"name": "normal_bn_1_1", "class_name": "BatchNormalization", "config": {"name": "normal_bn_1_1", "trainable": false, "axis": -1, "momentum": 0.9997, "epsilon": 0.001, "center": true, "scale": true, "beta_initializer": {"class_name": "Zeros", "config": {}}, "gamma_initializer": {"class_name": "Ones", "config": {}}, "moving_mean_initializer": {"class_name": "Zeros", "config": {}}, "moving_variance_initializer": {"class_name": "Ones", "config": {}}, "beta_regularizer": null, "gamma_regularizer": null, "beta_constraint": null, "gamma_constraint": null}, "inbound_nodes": [[["normal_conv_1_1", 0, 0, {}]]]}, {"name": "activation_36", "class_name": "Activation", "config": {"name": "activation_36", "trainable": false, "activation": "relu"}, "inbound_nodes": [[["normal_bn_1_1", 0, 0, {}]]]}, {"name": "activation_38", "class_name": "Activation", "config": {"name": "activation_38", "trainable": false, "activation": "relu"}, "inbound_nodes": [[["adjust_bn_1", 0, 0, {}]]]}, {"name": "activation_40", "class_name": "Activation", "config": {"name": "activation_40", "trainable": false, "activation": "relu"}, "inbound_nodes": [[["adjust_bn_1", 0, 0, {}]]]}, {"name": "activation_42", "class_name": "Activation", "config": {"name": "activation_42", "trainable": false, "activation": "relu"}, "inbound_nodes": [[["adjust_bn_1", 0, 0, {}]]]}, {"name": "activation_44", "class_name": "Activation", "config": {"name": "activation_44", "trainable": false, "activation": "relu"}, "inbound_nodes": [[["normal_bn_1_1", 0, 0, {}]]]}, {"name": "separable_conv_1_normal_left1_1", "class_name": "SeparableConv2D", "config": {"name": "separable_conv_1_normal_left1_1", "trainable": false, "filters": 44, "kernel_size": [5, 5], "strides": [1, 1], "padding": "same", "data_format": "channels_last", "dilation_rate": [1, 1], "activation": "linear", "use_bias": false, "bias_initializer": {"class_name": "Zeros", "config": {}}, "bias_regularizer": null, "activity_regularizer": null, "bias_constraint": null, "depth_multiplier": 1, "depthwise_initializer": {"class_name": "VarianceScaling", "config": {"scale": 1.0, "mode": "fan_avg", "distribution": "uniform", "seed": null}}, "pointwise_initializer": {"class_name": "VarianceScaling", "config": {"scale": 1.0, "mode": "fan_avg", "distribution": "uniform", "seed": null}}, "depthwise_regularizer": null, "pointwise_regularizer": null, "depthwise_constraint": null, "pointwise_constraint": null}, "inbound_nodes": [[["activation_36", 0, 0, {}]]]}, {"name": "separable_conv_1_normal_right1_1", "class_name": "SeparableConv2D", "config": {"name": "separable_conv_1_normal_right1_1", "trainable": false, "filters": 44, "kernel_size": [3, 3], "strides": [1, 1], "padding": "same", "data_format": "channels_last", "dilation_rate": [1, 1], "activation": "linear", "use_bias": false, "bias_initializer": {"class_name": "Zeros", "config": {}}, "bias_regularizer": null, "activity_regularizer": null, "bias_constraint": null, "depth_multiplier": 1, "depthwise_initializer": {"class_name": "VarianceScaling", "config": {"scale": 1.0, "mode": "fan_avg", "distribution": "uniform", "seed": null}}, "pointwise_initializer": {"class_name": "VarianceScaling", "config": {"scale": 1.0, "mode": "fan_avg", "distribution": "uniform", "seed": null}}, "depthwise_regularizer": null, "pointwise_regularizer": null, "depthwise_constraint": null, "pointwise_constraint": null}, "inbound_nodes": [[["activation_38", 0, 0, {}]]]}, {"name": "separable_conv_1_normal_left2_1", "class_name": "SeparableConv2D", "config": {"name": "separable_conv_1_normal_left2_1", "trainable": false, "filters": 44, "kernel_size": [5, 5], "strides": [1, 1], "padding": "same", "data_format": "channels_last", "dilation_rate": [1, 1], "activation": "linear", "use_bias": false, "bias_initializer": {"class_name": "Zeros", "config": {}}, "bias_regularizer": null, "activity_regularizer": null, "bias_constraint": null, "depth_multiplier": 1, "depthwise_initializer": {"class_name": "VarianceScaling", "config": {"scale": 1.0, "mode": "fan_avg", "distribution": "uniform", "seed": null}}, "pointwise_initializer": {"class_name": "VarianceScaling", "config": {"scale": 1.0, "mode": "fan_avg", "distribution": "uniform", "seed": null}}, "depthwise_regularizer": null, "pointwise_regularizer": null, "depthwise_constraint": null, "pointwise_constraint": null}, "inbound_nodes": [[["activation_40", 0, 0, {}]]]}, {"name": "separable_conv_1_normal_right2_1", "class_name": "SeparableConv2D", "config": {"name": "separable_conv_1_normal_right2_1", "trainable": false, "filters": 44, "kernel_size": [3, 3], "strides": [1, 1], "padding": "same", "data_format": "channels_last", "dilation_rate": [1, 1], "activation": "linear", "use_bias": false, "bias_initializer": {"class_name": "Zeros", "config": {}}, "bias_regularizer": null, "activity_regularizer": null, "bias_constraint": null, "depth_multiplier": 1, "depthwise_initializer": {"class_name": "VarianceScaling", "config": {"scale": 1.0, "mode": "fan_avg", "distribution": "uniform", "seed": null}}, "pointwise_initializer": {"class_name": "VarianceScaling", "config": {"scale": 1.0, "mode": "fan_avg", "distribution": "uniform", "seed": null}}, "depthwise_regularizer": null, "pointwise_regularizer": null, "depthwise_constraint": null, "pointwise_constraint": null}, "inbound_nodes": [[["activation_42", 0, 0, {}]]]}, {"name": "separable_conv_1_normal_left5_1", "class_name": "SeparableConv2D", "config": {"name": "separable_conv_1_normal_left5_1", "trainable": false, "filters": 44, "kernel_size": [3, 3], "strides": [1, 1], "padding": "same", "data_format": "channels_last", "dilation_rate": [1, 1], "activation": "linear", "use_bias": false, "bias_initializer": {"class_name": "Zeros", "config": {}}, "bias_regularizer": null, "activity_regularizer": null, "bias_constraint": null, "depth_multiplier": 1, "depthwise_initializer": {"class_name": "VarianceScaling", "config": {"scale": 1.0, "mode": "fan_avg", "distribution": "uniform", "seed": null}}, "pointwise_initializer": {"class_name": "VarianceScaling", "config": {"scale": 1.0, "mode": "fan_avg", "distribution": "uniform", "seed": null}}, "depthwise_regularizer": null, "pointwise_regularizer": null, "depthwise_constraint": null, "pointwise_constraint": null}, "inbound_nodes": [[["activation_44", 0, 0, {}]]]}, {"name": "separable_conv_1_bn_normal_left1_1", "class_name": "BatchNormalization", "config": {"name": "separable_conv_1_bn_normal_left1_1", "trainable": false, "axis": -1, "momentum": 0.9997, "epsilon": 0.001, "center": true, "scale": true, "beta_initializer": {"class_name": "Zeros", "config": {}}, "gamma_initializer": {"class_name": "Ones", "config": {}}, "moving_mean_initializer": {"class_name": "Zeros", "config": {}}, "moving_variance_initializer": {"class_name": "Ones", "config": {}}, "beta_regularizer": null, "gamma_regularizer": null, "beta_constraint": null, "gamma_constraint": null}, "inbound_nodes": [[["separable_conv_1_normal_left1_1", 0, 0, {}]]]}, {"name": "separable_conv_1_bn_normal_right1_1", "class_name": "BatchNormalization", "config": {"name": "separable_conv_1_bn_normal_right1_1", "trainable": false, "axis": -1, "momentum": 0.9997, "epsilon": 0.001, "center": true, "scale": true, "beta_initializer": {"class_name": "Zeros", "config": {}}, "gamma_initializer": {"class_name": "Ones", "config": {}}, "moving_mean_initializer": {"class_name": "Zeros", "config": {}}, "moving_variance_initializer": {"class_name": "Ones", "config": {}}, "beta_regularizer": null, "gamma_regularizer": null, "beta_constraint": null, "gamma_constraint": null}, "inbound_nodes": [[["separable_conv_1_normal_right1_1", 0, 0, {}]]]}, {"name": "separable_conv_1_bn_normal_left2_1", "class_name": "BatchNormalization", "config": {"name": "separable_conv_1_bn_normal_left2_1", "trainable": false, "axis": -1, "momentum": 0.9997, "epsilon": 0.001, "center": true, "scale": true, "beta_initializer": {"class_name": "Zeros", "config": {}}, "gamma_initializer": {"class_name": "Ones", "config": {}}, "moving_mean_initializer": {"class_name": "Zeros", "config": {}}, "moving_variance_initializer": {"class_name": "Ones", "config": {}}, "beta_regularizer": null, "gamma_regularizer": null, "beta_constraint": null, "gamma_constraint": null}, "inbound_nodes": [[["separable_conv_1_normal_left2_1", 0, 0, {}]]]}, {"name": "separable_conv_1_bn_normal_right2_1", "class_name": "BatchNormalization", "config": {"name": "separable_conv_1_bn_normal_right2_1", "trainable": false, "axis": -1, "momentum": 0.9997, "epsilon": 0.001, "center": true, "scale": true, "beta_initializer": {"class_name": "Zeros", "config": {}}, "gamma_initializer": {"class_name": "Ones", "config": {}}, "moving_mean_initializer": {"class_name": "Zeros", "config": {}}, "moving_variance_initializer": {"class_name": "Ones", "config": {}}, "beta_regularizer": null, "gamma_regularizer": null, "beta_constraint": null, "gamma_constraint": null}, "inbound_nodes": [[["separable_conv_1_normal_right2_1", 0, 0, {}]]]}, {"name": "separable_conv_1_bn_normal_left5_1", "class_name": "BatchNormalization", "config": {"name": "separable_conv_1_bn_normal_left5_1", "trainable": false, "axis": -1, "momentum": 0.9997, "epsilon": 0.001, "center": true, "scale": true, "beta_initializer": {"class_name": "Zeros", "config": {}}, "gamma_initializer": {"class_name": "Ones", "config": {}}, "moving_mean_initializer": {"class_name": "Zeros", "config": {}}, "moving_variance_initializer": {"class_name": "Ones", "config": {}}, "beta_regularizer": null, "gamma_regularizer": null, "beta_constraint": null, "gamma_constraint": null}, "inbound_nodes": [[["separable_conv_1_normal_left5_1", 0, 0, {}]]]}, {"name": "activation_37", "class_name": "Activation", "config": {"name": "activation_37", "trainable": false, "activation": "relu"}, "inbound_nodes": [[["separable_conv_1_bn_normal_left1_1", 0, 0, {}]]]}, {"name": "activation_39", "class_name": "Activation", "config": {"name": "activation_39", "trainable": false, "activation": "relu"}, "inbound_nodes": [[["separable_conv_1_bn_normal_right1_1", 0, 0, {}]]]}, {"name": "activation_41", "class_name": "Activation", "config": {"name": "activation_41", "trainable": false, "activation": "relu"}, "inbound_nodes": [[["separable_conv_1_bn_normal_left2_1", 0, 0, {}]]]}, {"name": "activation_43", "class_name": "Activation", "config": {"name": "activation_43", "trainable": false, "activation": "relu"}, "inbound_nodes": [[["separable_conv_1_bn_normal_right2_1", 0, 0, {}]]]}, {"name": "activation_45", "class_name": "Activation", "config": {"name": "activation_45", "trainable": false, "activation": "relu"}, "inbound_nodes": [[["separable_conv_1_bn_normal_left5_1", 0, 0, {}]]]}, {"name": "separable_conv_2_normal_left1_1", "class_name": "SeparableConv2D", "config": {"name": "separable_conv_2_normal_left1_1", "trainable": false, "filters": 44, "kernel_size": [5, 5], "strides": [1, 1], "padding": "same", "data_format": "channels_last", "dilation_rate": [1, 1], "activation": "linear", "use_bias": false, "bias_initializer": {"class_name": "Zeros", "config": {}}, "bias_regularizer": null, "activity_regularizer": null, "bias_constraint": null, "depth_multiplier": 1, "depthwise_initializer": {"class_name": "VarianceScaling", "config": {"scale": 1.0, "mode": "fan_avg", "distribution": "uniform", "seed": null}}, "pointwise_initializer": {"class_name": "VarianceScaling", "config": {"scale": 1.0, "mode": "fan_avg", "distribution": "uniform", "seed": null}}, "depthwise_regularizer": null, "pointwise_regularizer": null, "depthwise_constraint": null, "pointwise_constraint": null}, "inbound_nodes": [[["activation_37", 0, 0, {}]]]}, {"name": "separable_conv_2_normal_right1_1", "class_name": "SeparableConv2D", "config": {"name": "separable_conv_2_normal_right1_1", "trainable": false, "filters": 44, "kernel_size": [3, 3], "strides": [1, 1], "padding": "same", "data_format": "channels_last", "dilation_rate": [1, 1], "activation": "linear", "use_bias": false, "bias_initializer": {"class_name": "Zeros", "config": {}}, "bias_regularizer": null, "activity_regularizer": null, "bias_constraint": null, "depth_multiplier": 1, "depthwise_initializer": {"class_name": "VarianceScaling", "config": {"scale": 1.0, "mode": "fan_avg", "distribution": "uniform", "seed": null}}, "pointwise_initializer": {"class_name": "VarianceScaling", "config": {"scale": 1.0, "mode": "fan_avg", "distribution": "uniform", "seed": null}}, "depthwise_regularizer": null, "pointwise_regularizer": null, "depthwise_constraint": null, "pointwise_constraint": null}, "inbound_nodes": [[["activation_39", 0, 0, {}]]]}, {"name": "separable_conv_2_normal_left2_1", "class_name": "SeparableConv2D", "config": {"name": "separable_conv_2_normal_left2_1", "trainable": false, "filters": 44, "kernel_size": [5, 5], "strides": [1, 1], "padding": "same", "data_format": "channels_last", "dilation_rate": [1, 1], "activation": "linear", "use_bias": false, "bias_initializer": {"class_name": "Zeros", "config": {}}, "bias_regularizer": null, "activity_regularizer": null, "bias_constraint": null, "depth_multiplier": 1, "depthwise_initializer": {"class_name": "VarianceScaling", "config": {"scale": 1.0, "mode": "fan_avg", "distribution": "uniform", "seed": null}}, "pointwise_initializer": {"class_name": "VarianceScaling", "config": {"scale": 1.0, "mode": "fan_avg", "distribution": "uniform", "seed": null}}, "depthwise_regularizer": null, "pointwise_regularizer": null, "depthwise_constraint": null, "pointwise_constraint": null}, "inbound_nodes": [[["activation_41", 0, 0, {}]]]}, {"name": "separable_conv_2_normal_right2_1", "class_name": "SeparableConv2D", "config": {"name": "separable_conv_2_normal_right2_1", "trainable": false, "filters": 44, "kernel_size": [3, 3], "strides": [1, 1], "padding": "same", "data_format": "channels_last", "dilation_rate": [1, 1], "activation": "linear", "use_bias": false, "bias_initializer": {"class_name": "Zeros", "config": {}}, "bias_regularizer": null, "activity_regularizer": null, "bias_constraint": null, "depth_multiplier": 1, "depthwise_initializer": {"class_name": "VarianceScaling", "config": {"scale": 1.0, "mode": "fan_avg", "distribution": "uniform", "seed": null}}, "pointwise_initializer": {"class_name": "VarianceScaling", "config": {"scale": 1.0, "mode": "fan_avg", "distribution": "uniform", "seed": null}}, "depthwise_regularizer": null, "pointwise_regularizer": null, "depthwise_constraint": null, "pointwise_constraint": null}, "inbound_nodes": [[["activation_43", 0, 0, {}]]]}, {"name": "separable_conv_2_normal_left5_1", "class_name": "SeparableConv2D", "config": {"name": "separable_conv_2_normal_left5_1", "trainable": false, "filters": 44, "kernel_size": [3, 3], "strides": [1, 1], "padding": "same", "data_format": "channels_last", "dilation_rate": [1, 1], "activation": "linear", "use_bias": false, "bias_initializer": {"class_name": "Zeros", "config": {}}, "bias_regularizer": null, "activity_regularizer": null, "bias_constraint": null, "depth_multiplier": 1, "depthwise_initializer": {"class_name": "VarianceScaling", "config": {"scale": 1.0, "mode": "fan_avg", "distribution": "uniform", "seed": null}}, "pointwise_initializer": {"class_name": "VarianceScaling", "config": {"scale": 1.0, "mode": "fan_avg", "distribution": "uniform", "seed": null}}, "depthwise_regularizer": null, "pointwise_regularizer": null, "depthwise_constraint": null, "pointwise_constraint": null}, "inbound_nodes": [[["activation_45", 0, 0, {}]]]}, {"name": "separable_conv_2_bn_normal_left1_1", "class_name": "BatchNormalization", "config": {"name": "separable_conv_2_bn_normal_left1_1", "trainable": false, "axis": -1, "momentum": 0.9997, "epsilon": 0.001, "center": true, "scale": true, "beta_initializer": {"class_name": "Zeros", "config": {}}, "gamma_initializer": {"class_name": "Ones", "config": {}}, "moving_mean_initializer": {"class_name": "Zeros", "config": {}}, "moving_variance_initializer": {"class_name": "Ones", "config": {}}, "beta_regularizer": null, "gamma_regularizer": null, "beta_constraint": null, "gamma_constraint": null}, "inbound_nodes": [[["separable_conv_2_normal_left1_1", 0, 0, {}]]]}, {"name": "separable_conv_2_bn_normal_right1_1", "class_name": "BatchNormalization", "config": {"name": "separable_conv_2_bn_normal_right1_1", "trainable": false, "axis": -1, "momentum": 0.9997, "epsilon": 0.001, "center": true, "scale": true, "beta_initializer": {"class_name": "Zeros", "config": {}}, "gamma_initializer": {"class_name": "Ones", "config": {}}, "moving_mean_initializer": {"class_name": "Zeros", "config": {}}, "moving_variance_initializer": {"class_name": "Ones", "config": {}}, "beta_regularizer": null, "gamma_regularizer": null, "beta_constraint": null, "gamma_constraint": null}, "inbound_nodes": [[["separable_conv_2_normal_right1_1", 0, 0, {}]]]}, {"name": "separable_conv_2_bn_normal_left2_1", "class_name": "BatchNormalization", "config": {"name": "separable_conv_2_bn_normal_left2_1", "trainable": false, "axis": -1, "momentum": 0.9997, "epsilon": 0.001, "center": true, "scale": true, "beta_initializer": {"class_name": "Zeros", "config": {}}, "gamma_initializer": {"class_name": "Ones", "config": {}}, "moving_mean_initializer": {"class_name": "Zeros", "config": {}}, "moving_variance_initializer": {"class_name": "Ones", "config": {}}, "beta_regularizer": null, "gamma_regularizer": null, "beta_constraint": null, "gamma_constraint": null}, "inbound_nodes": [[["separable_conv_2_normal_left2_1", 0, 0, {}]]]}, {"name": "separable_conv_2_bn_normal_right2_1", "class_name": "BatchNormalization", "config": {"name": "separable_conv_2_bn_normal_right2_1", "trainable": false, "axis": -1, "momentum": 0.9997, "epsilon": 0.001, "center": true, "scale": true, "beta_initializer": {"class_name": "Zeros", "config": {}}, "gamma_initializer": {"class_name": "Ones", "config": {}}, "moving_mean_initializer": {"class_name": "Zeros", "config": {}}, "moving_variance_initializer": {"class_name": "Ones", "config": {}}, "beta_regularizer": null, "gamma_regularizer": null, "beta_constraint": null, "gamma_constraint": null}, "inbound_nodes": [[["separable_conv_2_normal_right2_1", 0, 0, {}]]]}, {"name": "normal_left3_1", "class_name": "AveragePooling2D", "config": {"name": "normal_left3_1", "trainable": false, "pool_size": [3, 3], "padding": "same", "strides": [1, 1], "data_format": "channels_last"}, "inbound_nodes": [[["normal_bn_1_1", 0, 0, {}]]]}, {"name": "normal_left4_1", "class_name": "AveragePooling2D", "config": {"name": "normal_left4_1", "trainable": false, "pool_size": [3, 3], "padding": "same", "strides": [1, 1], "data_format": "channels_last"}, "inbound_nodes": [[["adjust_bn_1", 0, 0, {}]]]}, {"name": "normal_right4_1", "class_name": "AveragePooling2D", "config": {"name": "normal_right4_1", "trainable": false, "pool_size": [3, 3], "padding": "same", "strides": [1, 1], "data_format": "channels_last"}, "inbound_nodes": [[["adjust_bn_1", 0, 0, {}]]]}, {"name": "separable_conv_2_bn_normal_left5_1", "class_name": "BatchNormalization", "config": {"name": "separable_conv_2_bn_normal_left5_1", "trainable": false, "axis": -1, "momentum": 0.9997, "epsilon": 0.001, "center": true, "scale": true, "beta_initializer": {"class_name": "Zeros", "config": {}}, "gamma_initializer": {"class_name": "Ones", "config": {}}, "moving_mean_initializer": {"class_name": "Zeros", "config": {}}, "moving_variance_initializer": {"class_name": "Ones", "config": {}}, "beta_regularizer": null, "gamma_regularizer": null, "beta_constraint": null, "gamma_constraint": null}, "inbound_nodes": [[["separable_conv_2_normal_left5_1", 0, 0, {}]]]}, {"name": "normal_add_1_1", "class_name": "Add", "config": {"name": "normal_add_1_1", "trainable": false}, "inbound_nodes": [[["separable_conv_2_bn_normal_left1_1", 0, 0, {}], ["separable_conv_2_bn_normal_right1_1", 0, 0, {}]]]}, {"name": "normal_add_2_1", "class_name": "Add", "config": {"name": "normal_add_2_1", "trainable": false}, "inbound_nodes": [[["separable_conv_2_bn_normal_left2_1", 0, 0, {}], ["separable_conv_2_bn_normal_right2_1", 0, 0, {}]]]}, {"name": "normal_add_3_1", "class_name": "Add", "config": {"name": "normal_add_3_1", "trainable": false}, "inbound_nodes": [[["normal_left3_1", 0, 0, {}], ["adjust_bn_1", 0, 0, {}]]]}, {"name": "normal_add_4_1", "class_name": "Add", "config": {"name": "normal_add_4_1", "trainable": false}, "inbound_nodes": [[["normal_left4_1", 0, 0, {}], ["normal_right4_1", 0, 0, {}]]]}, {"name": "normal_add_5_1", "class_name": "Add", "config": {"name": "normal_add_5_1", "trainable": false}, "inbound_nodes": [[["separable_conv_2_bn_normal_left5_1", 0, 0, {}], ["normal_bn_1_1", 0, 0, {}]]]}, {"name": "normal_concat_1", "class_name": "Concatenate", "config": {"name": "normal_concat_1", "trainable": false, "axis": -1}, "inbound_nodes": [[["adjust_bn_1", 0, 0, {}], ["normal_add_1_1", 0, 0, {}], ["normal_add_2_1", 0, 0, {}], ["normal_add_3_1", 0, 0, {}], ["normal_add_4_1", 0, 0, {}], ["normal_add_5_1", 0, 0, {}]]]}, {"name": "activation_46", "class_name": "Activation", "config": {"name": "activation_46", "trainable": false, "activation": "relu"}, "inbound_nodes": [[["normal_concat_0", 0, 0, {}]]]}, {"name": "activation_47", "class_name": "Activation", "config": {"name": "activation_47", "trainable": false, "activation": "relu"}, "inbound_nodes": [[["normal_concat_1", 0, 0, {}]]]}, {"name": "adjust_conv_projection_2", "class_name": "Conv2D", "config": {"name": "adjust_conv_projection_2", "trainable": false, "filters": 44, "kernel_size": [1, 1], "strides": [1, 1], "padding": "same", "data_format": "channels_last", "dilation_rate": [1, 1], "activation": "linear", "use_bias": false, "kernel_initializer": {"class_name": "VarianceScaling", "config": {"scale": 2.0, "mode": "fan_in", "distribution": "normal", "seed": null}}, "bias_initializer": {"class_name": "Zeros", "config": {}}, "kernel_regularizer": null, "bias_regularizer": null, "activity_regularizer": null, "kernel_constraint": null, "bias_constraint": null}, "inbound_nodes": [[["activation_46", 0, 0, {}]]]}, {"name": "normal_conv_1_2", "class_name": "Conv2D", "config": {"name": "normal_conv_1_2", "trainable": false, "filters": 44, "kernel_size": [1, 1], "strides": [1, 1], "padding": "same", "data_format": "channels_last", "dilation_rate": [1, 1], "activation": "linear", "use_bias": false, "kernel_initializer": {"class_name": "VarianceScaling", "config": {"scale": 2.0, "mode": "fan_in", "distribution": "normal", "seed": null}}, "bias_initializer": {"class_name": "Zeros", "config": {}}, "kernel_regularizer": null, "bias_regularizer": null, "activity_regularizer": null, "kernel_constraint": null, "bias_constraint": null}, "inbound_nodes": [[["activation_47", 0, 0, {}]]]}, {"name": "adjust_bn_2", "class_name": "BatchNormalization", "config": {"name": "adjust_bn_2", "trainable": false, "axis": -1, "momentum": 0.9997, "epsilon": 0.001, "center": true, "scale": true, "beta_initializer": {"class_name": "Zeros", "config": {}}, "gamma_initializer": {"class_name": "Ones", "config": {}}, "moving_mean_initializer": {"class_name": "Zeros", "config": {}}, "moving_variance_initializer": {"class_name": "Ones", "config": {}}, "beta_regularizer": null, "gamma_regularizer": null, "beta_constraint": null, "gamma_constraint": null}, "inbound_nodes": [[["adjust_conv_projection_2", 0, 0, {}]]]}, {"name": "normal_bn_1_2", "class_name": "BatchNormalization", "config": {"name": "normal_bn_1_2", "trainable": false, "axis": -1, "momentum": 0.9997, "epsilon": 0.001, "center": true, "scale": true, "beta_initializer": {"class_name": "Zeros", "config": {}}, "gamma_initializer": {"class_name": "Ones", "config": {}}, "moving_mean_initializer": {"class_name": "Zeros", "config": {}}, "moving_variance_initializer": {"class_name": "Ones", "config": {}}, "beta_regularizer": null, "gamma_regularizer": null, "beta_constraint": null, "gamma_constraint": null}, "inbound_nodes": [[["normal_conv_1_2", 0, 0, {}]]]}, {"name": "activation_48", "class_name": "Activation", "config": {"name": "activation_48", "trainable": false, "activation": "relu"}, "inbound_nodes": [[["normal_bn_1_2", 0, 0, {}]]]}, {"name": "activation_50", "class_name": "Activation", "config": {"name": "activation_50", "trainable": false, "activation": "relu"}, "inbound_nodes": [[["adjust_bn_2", 0, 0, {}]]]}, {"name": "activation_52", "class_name": "Activation", "config": {"name": "activation_52", "trainable": false, "activation": "relu"}, "inbound_nodes": [[["adjust_bn_2", 0, 0, {}]]]}, {"name": "activation_54", "class_name": "Activation", "config": {"name": "activation_54", "trainable": false, "activation": "relu"}, "inbound_nodes": [[["adjust_bn_2", 0, 0, {}]]]}, {"name": "activation_56", "class_name": "Activation", "config": {"name": "activation_56", "trainable": false, "activation": "relu"}, "inbound_nodes": [[["normal_bn_1_2", 0, 0, {}]]]}, {"name": "separable_conv_1_normal_left1_2", "class_name": "SeparableConv2D", "config": {"name": "separable_conv_1_normal_left1_2", "trainable": false, "filters": 44, "kernel_size": [5, 5], "strides": [1, 1], "padding": "same", "data_format": "channels_last", "dilation_rate": [1, 1], "activation": "linear", "use_bias": false, "bias_initializer": {"class_name": "Zeros", "config": {}}, "bias_regularizer": null, "activity_regularizer": null, "bias_constraint": null, "depth_multiplier": 1, "depthwise_initializer": {"class_name": "VarianceScaling", "config": {"scale": 1.0, "mode": "fan_avg", "distribution": "uniform", "seed": null}}, "pointwise_initializer": {"class_name": "VarianceScaling", "config": {"scale": 1.0, "mode": "fan_avg", "distribution": "uniform", "seed": null}}, "depthwise_regularizer": null, "pointwise_regularizer": null, "depthwise_constraint": null, "pointwise_constraint": null}, "inbound_nodes": [[["activation_48", 0, 0, {}]]]}, {"name": "separable_conv_1_normal_right1_2", "class_name": "SeparableConv2D", "config": {"name": "separable_conv_1_normal_right1_2", "trainable": false, "filters": 44, "kernel_size": [3, 3], "strides": [1, 1], "padding": "same", "data_format": "channels_last", "dilation_rate": [1, 1], "activation": "linear", "use_bias": false, "bias_initializer": {"class_name": "Zeros", "config": {}}, "bias_regularizer": null, "activity_regularizer": null, "bias_constraint": null, "depth_multiplier": 1, "depthwise_initializer": {"class_name": "VarianceScaling", "config": {"scale": 1.0, "mode": "fan_avg", "distribution": "uniform", "seed": null}}, "pointwise_initializer": {"class_name": "VarianceScaling", "config": {"scale": 1.0, "mode": "fan_avg", "distribution": "uniform", "seed": null}}, "depthwise_regularizer": null, "pointwise_regularizer": null, "depthwise_constraint": null, "pointwise_constraint": null}, "inbound_nodes": [[["activation_50", 0, 0, {}]]]}, {"name": "separable_conv_1_normal_left2_2", "class_name": "SeparableConv2D", "config": {"name": "separable_conv_1_normal_left2_2", "trainable": false, "filters": 44, "kernel_size": [5, 5], "strides": [1, 1], "padding": "same", "data_format": "channels_last", "dilation_rate": [1, 1], "activation": "linear", "use_bias": false, "bias_initializer": {"class_name": "Zeros", "config": {}}, "bias_regularizer": null, "activity_regularizer": null, "bias_constraint": null, "depth_multiplier": 1, "depthwise_initializer": {"class_name": "VarianceScaling", "config": {"scale": 1.0, "mode": "fan_avg", "distribution": "uniform", "seed": null}}, "pointwise_initializer": {"class_name": "VarianceScaling", "config": {"scale": 1.0, "mode": "fan_avg", "distribution": "uniform", "seed": null}}, "depthwise_regularizer": null, "pointwise_regularizer": null, "depthwise_constraint": null, "pointwise_constraint": null}, "inbound_nodes": [[["activation_52", 0, 0, {}]]]}, {"name": "separable_conv_1_normal_right2_2", "class_name": "SeparableConv2D", "config": {"name": "separable_conv_1_normal_right2_2", "trainable": false, "filters": 44, "kernel_size": [3, 3], "strides": [1, 1], "padding": "same", "data_format": "channels_last", "dilation_rate": [1, 1], "activation": "linear", "use_bias": false, "bias_initializer": {"class_name": "Zeros", "config": {}}, "bias_regularizer": null, "activity_regularizer": null, "bias_constraint": null, "depth_multiplier": 1, "depthwise_initializer": {"class_name": "VarianceScaling", "config": {"scale": 1.0, "mode": "fan_avg", "distribution": "uniform", "seed": null}}, "pointwise_initializer": {"class_name": "VarianceScaling", "config": {"scale": 1.0, "mode": "fan_avg", "distribution": "uniform", "seed": null}}, "depthwise_regularizer": null, "pointwise_regularizer": null, "depthwise_constraint": null, "pointwise_constraint": null}, "inbound_nodes": [[["activation_54", 0, 0, {}]]]}, {"name": "separable_conv_1_normal_left5_2", "class_name": "SeparableConv2D", "config": {"name": "separable_conv_1_normal_left5_2", "trainable": false, "filters": 44, "kernel_size": [3, 3], "strides": [1, 1], "padding": "same", "data_format": "channels_last", "dilation_rate": [1, 1], "activation": "linear", "use_bias": false, "bias_initializer": {"class_name": "Zeros", "config": {}}, "bias_regularizer": null, "activity_regularizer": null, "bias_constraint": null, "depth_multiplier": 1, "depthwise_initializer": {"class_name": "VarianceScaling", "config": {"scale": 1.0, "mode": "fan_avg", "distribution": "uniform", "seed": null}}, "pointwise_initializer": {"class_name": "VarianceScaling", "config": {"scale": 1.0, "mode": "fan_avg", "distribution": "uniform", "seed": null}}, "depthwise_regularizer": null, "pointwise_regularizer": null, "depthwise_constraint": null, "pointwise_constraint": null}, "inbound_nodes": [[["activation_56", 0, 0, {}]]]}, {"name": "separable_conv_1_bn_normal_left1_2", "class_name": "BatchNormalization", "config": {"name": "separable_conv_1_bn_normal_left1_2", "trainable": false, "axis": -1, "momentum": 0.9997, "epsilon": 0.001, "center": true, "scale": true, "beta_initializer": {"class_name": "Zeros", "config": {}}, "gamma_initializer": {"class_name": "Ones", "config": {}}, "moving_mean_initializer": {"class_name": "Zeros", "config": {}}, "moving_variance_initializer": {"class_name": "Ones", "config": {}}, "beta_regularizer": null, "gamma_regularizer": null, "beta_constraint": null, "gamma_constraint": null}, "inbound_nodes": [[["separable_conv_1_normal_left1_2", 0, 0, {}]]]}, {"name": "separable_conv_1_bn_normal_right1_2", "class_name": "BatchNormalization", "config": {"name": "separable_conv_1_bn_normal_right1_2", "trainable": false, "axis": -1, "momentum": 0.9997, "epsilon": 0.001, "center": true, "scale": true, "beta_initializer": {"class_name": "Zeros", "config": {}}, "gamma_initializer": {"class_name": "Ones", "config": {}}, "moving_mean_initializer": {"class_name": "Zeros", "config": {}}, "moving_variance_initializer": {"class_name": "Ones", "config": {}}, "beta_regularizer": null, "gamma_regularizer": null, "beta_constraint": null, "gamma_constraint": null}, "inbound_nodes": [[["separable_conv_1_normal_right1_2", 0, 0, {}]]]}, {"name": "separable_conv_1_bn_normal_left2_2", "class_name": "BatchNormalization", "config": {"name": "separable_conv_1_bn_normal_left2_2", "trainable": false, "axis": -1, "momentum": 0.9997, "epsilon": 0.001, "center": true, "scale": true, "beta_initializer": {"class_name": "Zeros", "config": {}}, "gamma_initializer": {"class_name": "Ones", "config": {}}, "moving_mean_initializer": {"class_name": "Zeros", "config": {}}, "moving_variance_initializer": {"class_name": "Ones", "config": {}}, "beta_regularizer": null, "gamma_regularizer": null, "beta_constraint": null, "gamma_constraint": null}, "inbound_nodes": [[["separable_conv_1_normal_left2_2", 0, 0, {}]]]}, {"name": "separable_conv_1_bn_normal_right2_2", "class_name": "BatchNormalization", "config": {"name": "separable_conv_1_bn_normal_right2_2", "trainable": false, "axis": -1, "momentum": 0.9997, "epsilon": 0.001, "center": true, "scale": true, "beta_initializer": {"class_name": "Zeros", "config": {}}, "gamma_initializer": {"class_name": "Ones", "config": {}}, "moving_mean_initializer": {"class_name": "Zeros", "config": {}}, "moving_variance_initializer": {"class_name": "Ones", "config": {}}, "beta_regularizer": null, "gamma_regularizer": null, "beta_constraint": null, "gamma_constraint": null}, "inbound_nodes": [[["separable_conv_1_normal_right2_2", 0, 0, {}]]]}, {"name": "separable_conv_1_bn_normal_left5_2", "class_name": "BatchNormalization", "config": {"name": "separable_conv_1_bn_normal_left5_2", "trainable": false, "axis": -1, "momentum": 0.9997, "epsilon": 0.001, "center": true, "scale": true, "beta_initializer": {"class_name": "Zeros", "config": {}}, "gamma_initializer": {"class_name": "Ones", "config": {}}, "moving_mean_initializer": {"class_name": "Zeros", "config": {}}, "moving_variance_initializer": {"class_name": "Ones", "config": {}}, "beta_regularizer": null, "gamma_regularizer": null, "beta_constraint": null, "gamma_constraint": null}, "inbound_nodes": [[["separable_conv_1_normal_left5_2", 0, 0, {}]]]}, {"name": "activation_49", "class_name": "Activation", "config": {"name": "activation_49", "trainable": false, "activation": "relu"}, "inbound_nodes": [[["separable_conv_1_bn_normal_left1_2", 0, 0, {}]]]}, {"name": "activation_51", "class_name": "Activation", "config": {"name": "activation_51", "trainable": false, "activation": "relu"}, "inbound_nodes": [[["separable_conv_1_bn_normal_right1_2", 0, 0, {}]]]}, {"name": "activation_53", "class_name": "Activation", "config": {"name": "activation_53", "trainable": false, "activation": "relu"}, "inbound_nodes": [[["separable_conv_1_bn_normal_left2_2", 0, 0, {}]]]}, {"name": "activation_55", "class_name": "Activation", "config": {"name": "activation_55", "trainable": false, "activation": "relu"}, "inbound_nodes": [[["separable_conv_1_bn_normal_right2_2", 0, 0, {}]]]}, {"name": "activation_57", "class_name": "Activation", "config": {"name": "activation_57", "trainable": false, "activation": "relu"}, "inbound_nodes": [[["separable_conv_1_bn_normal_left5_2", 0, 0, {}]]]}, {"name": "separable_conv_2_normal_left1_2", "class_name": "SeparableConv2D", "config": {"name": "separable_conv_2_normal_left1_2", "trainable": false, "filters": 44, "kernel_size": [5, 5], "strides": [1, 1], "padding": "same", "data_format": "channels_last", "dilation_rate": [1, 1], "activation": "linear", "use_bias": false, "bias_initializer": {"class_name": "Zeros", "config": {}}, "bias_regularizer": null, "activity_regularizer": null, "bias_constraint": null, "depth_multiplier": 1, "depthwise_initializer": {"class_name": "VarianceScaling", "config": {"scale": 1.0, "mode": "fan_avg", "distribution": "uniform", "seed": null}}, "pointwise_initializer": {"class_name": "VarianceScaling", "config": {"scale": 1.0, "mode": "fan_avg", "distribution": "uniform", "seed": null}}, "depthwise_regularizer": null, "pointwise_regularizer": null, "depthwise_constraint": null, "pointwise_constraint": null}, "inbound_nodes": [[["activation_49", 0, 0, {}]]]}, {"name": "separable_conv_2_normal_right1_2", "class_name": "SeparableConv2D", "config": {"name": "separable_conv_2_normal_right1_2", "trainable": false, "filters": 44, "kernel_size": [3, 3], "strides": [1, 1], "padding": "same", "data_format": "channels_last", "dilation_rate": [1, 1], "activation": "linear", "use_bias": false, "bias_initializer": {"class_name": "Zeros", "config": {}}, "bias_regularizer": null, "activity_regularizer": null, "bias_constraint": null, "depth_multiplier": 1, "depthwise_initializer": {"class_name": "VarianceScaling", "config": {"scale": 1.0, "mode": "fan_avg", "distribution": "uniform", "seed": null}}, "pointwise_initializer": {"class_name": "VarianceScaling", "config": {"scale": 1.0, "mode": "fan_avg", "distribution": "uniform", "seed": null}}, "depthwise_regularizer": null, "pointwise_regularizer": null, "depthwise_constraint": null, "pointwise_constraint": null}, "inbound_nodes": [[["activation_51", 0, 0, {}]]]}, {"name": "separable_conv_2_normal_left2_2", "class_name": "SeparableConv2D", "config": {"name": "separable_conv_2_normal_left2_2", "trainable": false, "filters": 44, "kernel_size": [5, 5], "strides": [1, 1], "padding": "same", "data_format": "channels_last", "dilation_rate": [1, 1], "activation": "linear", "use_bias": false, "bias_initializer": {"class_name": "Zeros", "config": {}}, "bias_regularizer": null, "activity_regularizer": null, "bias_constraint": null, "depth_multiplier": 1, "depthwise_initializer": {"class_name": "VarianceScaling", "config": {"scale": 1.0, "mode": "fan_avg", "distribution": "uniform", "seed": null}}, "pointwise_initializer": {"class_name": "VarianceScaling", "config": {"scale": 1.0, "mode": "fan_avg", "distribution": "uniform", "seed": null}}, "depthwise_regularizer": null, "pointwise_regularizer": null, "depthwise_constraint": null, "pointwise_constraint": null}, "inbound_nodes": [[["activation_53", 0, 0, {}]]]}, {"name": "separable_conv_2_normal_right2_2", "class_name": "SeparableConv2D", "config": {"name": "separable_conv_2_normal_right2_2", "trainable": false, "filters": 44, "kernel_size": [3, 3], "strides": [1, 1], "padding": "same", "data_format": "channels_last", "dilation_rate": [1, 1], "activation": "linear", "use_bias": false, "bias_initializer": {"class_name": "Zeros", "config": {}}, "bias_regularizer": null, "activity_regularizer": null, "bias_constraint": null, "depth_multiplier": 1, "depthwise_initializer": {"class_name": "VarianceScaling", "config": {"scale": 1.0, "mode": "fan_avg", "distribution": "uniform", "seed": null}}, "pointwise_initializer": {"class_name": "VarianceScaling", "config": {"scale": 1.0, "mode": "fan_avg", "distribution": "uniform", "seed": null}}, "depthwise_regularizer": null, "pointwise_regularizer": null, "depthwise_constraint": null, "pointwise_constraint": null}, "inbound_nodes": [[["activation_55", 0, 0, {}]]]}, {"name": "separable_conv_2_normal_left5_2", "class_name": "SeparableConv2D", "config": {"name": "separable_conv_2_normal_left5_2", "trainable": false, "filters": 44, "kernel_size": [3, 3], "strides": [1, 1], "padding": "same", "data_format": "channels_last", "dilation_rate": [1, 1], "activation": "linear", "use_bias": false, "bias_initializer": {"class_name": "Zeros", "config": {}}, "bias_regularizer": null, "activity_regularizer": null, "bias_constraint": null, "depth_multiplier": 1, "depthwise_initializer": {"class_name": "VarianceScaling", "config": {"scale": 1.0, "mode": "fan_avg", "distribution": "uniform", "seed": null}}, "pointwise_initializer": {"class_name": "VarianceScaling", "config": {"scale": 1.0, "mode": "fan_avg", "distribution": "uniform", "seed": null}}, "depthwise_regularizer": null, "pointwise_regularizer": null, "depthwise_constraint": null, "pointwise_constraint": null}, "inbound_nodes": [[["activation_57", 0, 0, {}]]]}, {"name": "separable_conv_2_bn_normal_left1_2", "class_name": "BatchNormalization", "config": {"name": "separable_conv_2_bn_normal_left1_2", "trainable": false, "axis": -1, "momentum": 0.9997, "epsilon": 0.001, "center": true, "scale": true, "beta_initializer": {"class_name": "Zeros", "config": {}}, "gamma_initializer": {"class_name": "Ones", "config": {}}, "moving_mean_initializer": {"class_name": "Zeros", "config": {}}, "moving_variance_initializer": {"class_name": "Ones", "config": {}}, "beta_regularizer": null, "gamma_regularizer": null, "beta_constraint": null, "gamma_constraint": null}, "inbound_nodes": [[["separable_conv_2_normal_left1_2", 0, 0, {}]]]}, {"name": "separable_conv_2_bn_normal_right1_2", "class_name": "BatchNormalization", "config": {"name": "separable_conv_2_bn_normal_right1_2", "trainable": false, "axis": -1, "momentum": 0.9997, "epsilon": 0.001, "center": true, "scale": true, "beta_initializer": {"class_name": "Zeros", "config": {}}, "gamma_initializer": {"class_name": "Ones", "config": {}}, "moving_mean_initializer": {"class_name": "Zeros", "config": {}}, "moving_variance_initializer": {"class_name": "Ones", "config": {}}, "beta_regularizer": null, "gamma_regularizer": null, "beta_constraint": null, "gamma_constraint": null}, "inbound_nodes": [[["separable_conv_2_normal_right1_2", 0, 0, {}]]]}, {"name": "separable_conv_2_bn_normal_left2_2", "class_name": "BatchNormalization", "config": {"name": "separable_conv_2_bn_normal_left2_2", "trainable": false, "axis": -1, "momentum": 0.9997, "epsilon": 0.001, "center": true, "scale": true, "beta_initializer": {"class_name": "Zeros", "config": {}}, "gamma_initializer": {"class_name": "Ones", "config": {}}, "moving_mean_initializer": {"class_name": "Zeros", "config": {}}, "moving_variance_initializer": {"class_name": "Ones", "config": {}}, "beta_regularizer": null, "gamma_regularizer": null, "beta_constraint": null, "gamma_constraint": null}, "inbound_nodes": [[["separable_conv_2_normal_left2_2", 0, 0, {}]]]}, {"name": "separable_conv_2_bn_normal_right2_2", "class_name": "BatchNormalization", "config": {"name": "separable_conv_2_bn_normal_right2_2", "trainable": false, "axis": -1, "momentum": 0.9997, "epsilon": 0.001, "center": true, "scale": true, "beta_initializer": {"class_name": "Zeros", "config": {}}, "gamma_initializer": {"class_name": "Ones", "config": {}}, "moving_mean_initializer": {"class_name": "Zeros", "config": {}}, "moving_variance_initializer": {"class_name": "Ones", "config": {}}, "beta_regularizer": null, "gamma_regularizer": null, "beta_constraint": null, "gamma_constraint": null}, "inbound_nodes": [[["separable_conv_2_normal_right2_2", 0, 0, {}]]]}, {"name": "normal_left3_2", "class_name": "AveragePooling2D", "config": {"name": "normal_left3_2", "trainable": false, "pool_size": [3, 3], "padding": "same", "strides": [1, 1], "data_format": "channels_last"}, "inbound_nodes": [[["normal_bn_1_2", 0, 0, {}]]]}, {"name": "normal_left4_2", "class_name": "AveragePooling2D", "config": {"name": "normal_left4_2", "trainable": false, "pool_size": [3, 3], "padding": "same", "strides": [1, 1], "data_format": "channels_last"}, "inbound_nodes": [[["adjust_bn_2", 0, 0, {}]]]}, {"name": "normal_right4_2", "class_name": "AveragePooling2D", "config": {"name": "normal_right4_2", "trainable": false, "pool_size": [3, 3], "padding": "same", "strides": [1, 1], "data_format": "channels_last"}, "inbound_nodes": [[["adjust_bn_2", 0, 0, {}]]]}, {"name": "separable_conv_2_bn_normal_left5_2", "class_name": "BatchNormalization", "config": {"name": "separable_conv_2_bn_normal_left5_2", "trainable": false, "axis": -1, "momentum": 0.9997, "epsilon": 0.001, "center": true, "scale": true, "beta_initializer": {"class_name": "Zeros", "config": {}}, "gamma_initializer": {"class_name": "Ones", "config": {}}, "moving_mean_initializer": {"class_name": "Zeros", "config": {}}, "moving_variance_initializer": {"class_name": "Ones", "config": {}}, "beta_regularizer": null, "gamma_regularizer": null, "beta_constraint": null, "gamma_constraint": null}, "inbound_nodes": [[["separable_conv_2_normal_left5_2", 0, 0, {}]]]}, {"name": "normal_add_1_2", "class_name": "Add", "config": {"name": "normal_add_1_2", "trainable": false}, "inbound_nodes": [[["separable_conv_2_bn_normal_left1_2", 0, 0, {}], ["separable_conv_2_bn_normal_right1_2", 0, 0, {}]]]}, {"name": "normal_add_2_2", "class_name": "Add", "config": {"name": "normal_add_2_2", "trainable": false}, "inbound_nodes": [[["separable_conv_2_bn_normal_left2_2", 0, 0, {}], ["separable_conv_2_bn_normal_right2_2", 0, 0, {}]]]}, {"name": "normal_add_3_2", "class_name": "Add", "config": {"name": "normal_add_3_2", "trainable": false}, "inbound_nodes": [[["normal_left3_2", 0, 0, {}], ["adjust_bn_2", 0, 0, {}]]]}, {"name": "normal_add_4_2", "class_name": "Add", "config": {"name": "normal_add_4_2", "trainable": false}, "inbound_nodes": [[["normal_left4_2", 0, 0, {}], ["normal_right4_2", 0, 0, {}]]]}, {"name": "normal_add_5_2", "class_name": "Add", "config": {"name": "normal_add_5_2", "trainable": false}, "inbound_nodes": [[["separable_conv_2_bn_normal_left5_2", 0, 0, {}], ["normal_bn_1_2", 0, 0, {}]]]}, {"name": "normal_concat_2", "class_name": "Concatenate", "config": {"name": "normal_concat_2", "trainable": false, "axis": -1}, "inbound_nodes": [[["adjust_bn_2", 0, 0, {}], ["normal_add_1_2", 0, 0, {}], ["normal_add_2_2", 0, 0, {}], ["normal_add_3_2", 0, 0, {}], ["normal_add_4_2", 0, 0, {}], ["normal_add_5_2", 0, 0, {}]]]}, {"name": "activation_58", "class_name": "Activation", "config": {"name": "activation_58", "trainable": false, "activation": "relu"}, "inbound_nodes": [[["normal_concat_1", 0, 0, {}]]]}, {"name": "activation_59", "class_name": "Activation", "config": {"name": "activation_59", "trainable": false, "activation": "relu"}, "inbound_nodes": [[["normal_concat_2", 0, 0, {}]]]}, {"name": "adjust_conv_projection_3", "class_name": "Conv2D", "config": {"name": "adjust_conv_projection_3", "trainable": false, "filters": 44, "kernel_size": [1, 1], "strides": [1, 1], "padding": "same", "data_format": "channels_last", "dilation_rate": [1, 1], "activation": "linear", "use_bias": false, "kernel_initializer": {"class_name": "VarianceScaling", "config": {"scale": 2.0, "mode": "fan_in", "distribution": "normal", "seed": null}}, "bias_initializer": {"class_name": "Zeros", "config": {}}, "kernel_regularizer": null, "bias_regularizer": null, "activity_regularizer": null, "kernel_constraint": null, "bias_constraint": null}, "inbound_nodes": [[["activation_58", 0, 0, {}]]]}, {"name": "normal_conv_1_3", "class_name": "Conv2D", "config": {"name": "normal_conv_1_3", "trainable": false, "filters": 44, "kernel_size": [1, 1], "strides": [1, 1], "padding": "same", "data_format": "channels_last", "dilation_rate": [1, 1], "activation": "linear", "use_bias": false, "kernel_initializer": {"class_name": "VarianceScaling", "config": {"scale": 2.0, "mode": "fan_in", "distribution": "normal", "seed": null}}, "bias_initializer": {"class_name": "Zeros", "config": {}}, "kernel_regularizer": null, "bias_regularizer": null, "activity_regularizer": null, "kernel_constraint": null, "bias_constraint": null}, "inbound_nodes": [[["activation_59", 0, 0, {}]]]}, {"name": "adjust_bn_3", "class_name": "BatchNormalization", "config": {"name": "adjust_bn_3", "trainable": false, "axis": -1, "momentum": 0.9997, "epsilon": 0.001, "center": true, "scale": true, "beta_initializer": {"class_name": "Zeros", "config": {}}, "gamma_initializer": {"class_name": "Ones", "config": {}}, "moving_mean_initializer": {"class_name": "Zeros", "config": {}}, "moving_variance_initializer": {"class_name": "Ones", "config": {}}, "beta_regularizer": null, "gamma_regularizer": null, "beta_constraint": null, "gamma_constraint": null}, "inbound_nodes": [[["adjust_conv_projection_3", 0, 0, {}]]]}, {"name": "normal_bn_1_3", "class_name": "BatchNormalization", "config": {"name": "normal_bn_1_3", "trainable": false, "axis": -1, "momentum": 0.9997, "epsilon": 0.001, "center": true, "scale": true, "beta_initializer": {"class_name": "Zeros", "config": {}}, "gamma_initializer": {"class_name": "Ones", "config": {}}, "moving_mean_initializer": {"class_name": "Zeros", "config": {}}, "moving_variance_initializer": {"class_name": "Ones", "config": {}}, "beta_regularizer": null, "gamma_regularizer": null, "beta_constraint": null, "gamma_constraint": null}, "inbound_nodes": [[["normal_conv_1_3", 0, 0, {}]]]}, {"name": "activation_60", "class_name": "Activation", "config": {"name": "activation_60", "trainable": false, "activation": "relu"}, "inbound_nodes": [[["normal_bn_1_3", 0, 0, {}]]]}, {"name": "activation_62", "class_name": "Activation", "config": {"name": "activation_62", "trainable": false, "activation": "relu"}, "inbound_nodes": [[["adjust_bn_3", 0, 0, {}]]]}, {"name": "activation_64", "class_name": "Activation", "config": {"name": "activation_64", "trainable": false, "activation": "relu"}, "inbound_nodes": [[["adjust_bn_3", 0, 0, {}]]]}, {"name": "activation_66", "class_name": "Activation", "config": {"name": "activation_66", "trainable": false, "activation": "relu"}, "inbound_nodes": [[["adjust_bn_3", 0, 0, {}]]]}, {"name": "activation_68", "class_name": "Activation", "config": {"name": "activation_68", "trainable": false, "activation": "relu"}, "inbound_nodes": [[["normal_bn_1_3", 0, 0, {}]]]}, {"name": "separable_conv_1_normal_left1_3", "class_name": "SeparableConv2D", "config": {"name": "separable_conv_1_normal_left1_3", "trainable": false, "filters": 44, "kernel_size": [5, 5], "strides": [1, 1], "padding": "same", "data_format": "channels_last", "dilation_rate": [1, 1], "activation": "linear", "use_bias": false, "bias_initializer": {"class_name": "Zeros", "config": {}}, "bias_regularizer": null, "activity_regularizer": null, "bias_constraint": null, "depth_multiplier": 1, "depthwise_initializer": {"class_name": "VarianceScaling", "config": {"scale": 1.0, "mode": "fan_avg", "distribution": "uniform", "seed": null}}, "pointwise_initializer": {"class_name": "VarianceScaling", "config": {"scale": 1.0, "mode": "fan_avg", "distribution": "uniform", "seed": null}}, "depthwise_regularizer": null, "pointwise_regularizer": null, "depthwise_constraint": null, "pointwise_constraint": null}, "inbound_nodes": [[["activation_60", 0, 0, {}]]]}, {"name": "separable_conv_1_normal_right1_3", "class_name": "SeparableConv2D", "config": {"name": "separable_conv_1_normal_right1_3", "trainable": false, "filters": 44, "kernel_size": [3, 3], "strides": [1, 1], "padding": "same", "data_format": "channels_last", "dilation_rate": [1, 1], "activation": "linear", "use_bias": false, "bias_initializer": {"class_name": "Zeros", "config": {}}, "bias_regularizer": null, "activity_regularizer": null, "bias_constraint": null, "depth_multiplier": 1, "depthwise_initializer": {"class_name": "VarianceScaling", "config": {"scale": 1.0, "mode": "fan_avg", "distribution": "uniform", "seed": null}}, "pointwise_initializer": {"class_name": "VarianceScaling", "config": {"scale": 1.0, "mode": "fan_avg", "distribution": "uniform", "seed": null}}, "depthwise_regularizer": null, "pointwise_regularizer": null, "depthwise_constraint": null, "pointwise_constraint": null}, "inbound_nodes": [[["activation_62", 0, 0, {}]]]}, {"name": "separable_conv_1_normal_left2_3", "class_name": "SeparableConv2D", "config": {"name": "separable_conv_1_normal_left2_3", "trainable": false, "filters": 44, "kernel_size": [5, 5], "strides": [1, 1], "padding": "same", "data_format": "channels_last", "dilation_rate": [1, 1], "activation": "linear", "use_bias": false, "bias_initializer": {"class_name": "Zeros", "config": {}}, "bias_regularizer": null, "activity_regularizer": null, "bias_constraint": null, "depth_multiplier": 1, "depthwise_initializer": {"class_name": "VarianceScaling", "config": {"scale": 1.0, "mode": "fan_avg", "distribution": "uniform", "seed": null}}, "pointwise_initializer": {"class_name": "VarianceScaling", "config": {"scale": 1.0, "mode": "fan_avg", "distribution": "uniform", "seed": null}}, "depthwise_regularizer": null, "pointwise_regularizer": null, "depthwise_constraint": null, "pointwise_constraint": null}, "inbound_nodes": [[["activation_64", 0, 0, {}]]]}, {"name": "separable_conv_1_normal_right2_3", "class_name": "SeparableConv2D", "config": {"name": "separable_conv_1_normal_right2_3", "trainable": false, "filters": 44, "kernel_size": [3, 3], "strides": [1, 1], "padding": "same", "data_format": "channels_last", "dilation_rate": [1, 1], "activation": "linear", "use_bias": false, "bias_initializer": {"class_name": "Zeros", "config": {}}, "bias_regularizer": null, "activity_regularizer": null, "bias_constraint": null, "depth_multiplier": 1, "depthwise_initializer": {"class_name": "VarianceScaling", "config": {"scale": 1.0, "mode": "fan_avg", "distribution": "uniform", "seed": null}}, "pointwise_initializer": {"class_name": "VarianceScaling", "config": {"scale": 1.0, "mode": "fan_avg", "distribution": "uniform", "seed": null}}, "depthwise_regularizer": null, "pointwise_regularizer": null, "depthwise_constraint": null, "pointwise_constraint": null}, "inbound_nodes": [[["activation_66", 0, 0, {}]]]}, {"name": "separable_conv_1_normal_left5_3", "class_name": "SeparableConv2D", "config": {"name": "separable_conv_1_normal_left5_3", "trainable": false, "filters": 44, "kernel_size": [3, 3], "strides": [1, 1], "padding": "same", "data_format": "channels_last", "dilation_rate": [1, 1], "activation": "linear", "use_bias": false, "bias_initializer": {"class_name": "Zeros", "config": {}}, "bias_regularizer": null, "activity_regularizer": null, "bias_constraint": null, "depth_multiplier": 1, "depthwise_initializer": {"class_name": "VarianceScaling", "config": {"scale": 1.0, "mode": "fan_avg", "distribution": "uniform", "seed": null}}, "pointwise_initializer": {"class_name": "VarianceScaling", "config": {"scale": 1.0, "mode": "fan_avg", "distribution": "uniform", "seed": null}}, "depthwise_regularizer": null, "pointwise_regularizer": null, "depthwise_constraint": null, "pointwise_constraint": null}, "inbound_nodes": [[["activation_68", 0, 0, {}]]]}, {"name": "separable_conv_1_bn_normal_left1_3", "class_name": "BatchNormalization", "config": {"name": "separable_conv_1_bn_normal_left1_3", "trainable": false, "axis": -1, "momentum": 0.9997, "epsilon": 0.001, "center": true, "scale": true, "beta_initializer": {"class_name": "Zeros", "config": {}}, "gamma_initializer": {"class_name": "Ones", "config": {}}, "moving_mean_initializer": {"class_name": "Zeros", "config": {}}, "moving_variance_initializer": {"class_name": "Ones", "config": {}}, "beta_regularizer": null, "gamma_regularizer": null, "beta_constraint": null, "gamma_constraint": null}, "inbound_nodes": [[["separable_conv_1_normal_left1_3", 0, 0, {}]]]}, {"name": "separable_conv_1_bn_normal_right1_3", "class_name": "BatchNormalization", "config": {"name": "separable_conv_1_bn_normal_right1_3", "trainable": false, "axis": -1, "momentum": 0.9997, "epsilon": 0.001, "center": true, "scale": true, "beta_initializer": {"class_name": "Zeros", "config": {}}, "gamma_initializer": {"class_name": "Ones", "config": {}}, "moving_mean_initializer": {"class_name": "Zeros", "config": {}}, "moving_variance_initializer": {"class_name": "Ones", "config": {}}, "beta_regularizer": null, "gamma_regularizer": null, "beta_constraint": null, "gamma_constraint": null}, "inbound_nodes": [[["separable_conv_1_normal_right1_3", 0, 0, {}]]]}, {"name": "separable_conv_1_bn_normal_left2_3", "class_name": "BatchNormalization", "config": {"name": "separable_conv_1_bn_normal_left2_3", "trainable": false, "axis": -1, "momentum": 0.9997, "epsilon": 0.001, "center": true, "scale": true, "beta_initializer": {"class_name": "Zeros", "config": {}}, "gamma_initializer": {"class_name": "Ones", "config": {}}, "moving_mean_initializer": {"class_name": "Zeros", "config": {}}, "moving_variance_initializer": {"class_name": "Ones", "config": {}}, "beta_regularizer": null, "gamma_regularizer": null, "beta_constraint": null, "gamma_constraint": null}, "inbound_nodes": [[["separable_conv_1_normal_left2_3", 0, 0, {}]]]}, {"name": "separable_conv_1_bn_normal_right2_3", "class_name": "BatchNormalization", "config": {"name": "separable_conv_1_bn_normal_right2_3", "trainable": false, "axis": -1, "momentum": 0.9997, "epsilon": 0.001, "center": true, "scale": true, "beta_initializer": {"class_name": "Zeros", "config": {}}, "gamma_initializer": {"class_name": "Ones", "config": {}}, "moving_mean_initializer": {"class_name": "Zeros", "config": {}}, "moving_variance_initializer": {"class_name": "Ones", "config": {}}, "beta_regularizer": null, "gamma_regularizer": null, "beta_constraint": null, "gamma_constraint": null}, "inbound_nodes": [[["separable_conv_1_normal_right2_3", 0, 0, {}]]]}, {"name": "separable_conv_1_bn_normal_left5_3", "class_name": "BatchNormalization", "config": {"name": "separable_conv_1_bn_normal_left5_3", "trainable": false, "axis": -1, "momentum": 0.9997, "epsilon": 0.001, "center": true, "scale": true, "beta_initializer": {"class_name": "Zeros", "config": {}}, "gamma_initializer": {"class_name": "Ones", "config": {}}, "moving_mean_initializer": {"class_name": "Zeros", "config": {}}, "moving_variance_initializer": {"class_name": "Ones", "config": {}}, "beta_regularizer": null, "gamma_regularizer": null, "beta_constraint": null, "gamma_constraint": null}, "inbound_nodes": [[["separable_conv_1_normal_left5_3", 0, 0, {}]]]}, {"name": "activation_61", "class_name": "Activation", "config": {"name": "activation_61", "trainable": false, "activation": "relu"}, "inbound_nodes": [[["separable_conv_1_bn_normal_left1_3", 0, 0, {}]]]}, {"name": "activation_63", "class_name": "Activation", "config": {"name": "activation_63", "trainable": false, "activation": "relu"}, "inbound_nodes": [[["separable_conv_1_bn_normal_right1_3", 0, 0, {}]]]}, {"name": "activation_65", "class_name": "Activation", "config": {"name": "activation_65", "trainable": false, "activation": "relu"}, "inbound_nodes": [[["separable_conv_1_bn_normal_left2_3", 0, 0, {}]]]}, {"name": "activation_67", "class_name": "Activation", "config": {"name": "activation_67", "trainable": false, "activation": "relu"}, "inbound_nodes": [[["separable_conv_1_bn_normal_right2_3", 0, 0, {}]]]}, {"name": "activation_69", "class_name": "Activation", "config": {"name": "activation_69", "trainable": false, "activation": "relu"}, "inbound_nodes": [[["separable_conv_1_bn_normal_left5_3", 0, 0, {}]]]}, {"name": "separable_conv_2_normal_left1_3", "class_name": "SeparableConv2D", "config": {"name": "separable_conv_2_normal_left1_3", "trainable": false, "filters": 44, "kernel_size": [5, 5], "strides": [1, 1], "padding": "same", "data_format": "channels_last", "dilation_rate": [1, 1], "activation": "linear", "use_bias": false, "bias_initializer": {"class_name": "Zeros", "config": {}}, "bias_regularizer": null, "activity_regularizer": null, "bias_constraint": null, "depth_multiplier": 1, "depthwise_initializer": {"class_name": "VarianceScaling", "config": {"scale": 1.0, "mode": "fan_avg", "distribution": "uniform", "seed": null}}, "pointwise_initializer": {"class_name": "VarianceScaling", "config": {"scale": 1.0, "mode": "fan_avg", "distribution": "uniform", "seed": null}}, "depthwise_regularizer": null, "pointwise_regularizer": null, "depthwise_constraint": null, "pointwise_constraint": null}, "inbound_nodes": [[["activation_61", 0, 0, {}]]]}, {"name": "separable_conv_2_normal_right1_3", "class_name": "SeparableConv2D", "config": {"name": "separable_conv_2_normal_right1_3", "trainable": false, "filters": 44, "kernel_size": [3, 3], "strides": [1, 1], "padding": "same", "data_format": "channels_last", "dilation_rate": [1, 1], "activation": "linear", "use_bias": false, "bias_initializer": {"class_name": "Zeros", "config": {}}, "bias_regularizer": null, "activity_regularizer": null, "bias_constraint": null, "depth_multiplier": 1, "depthwise_initializer": {"class_name": "VarianceScaling", "config": {"scale": 1.0, "mode": "fan_avg", "distribution": "uniform", "seed": null}}, "pointwise_initializer": {"class_name": "VarianceScaling", "config": {"scale": 1.0, "mode": "fan_avg", "distribution": "uniform", "seed": null}}, "depthwise_regularizer": null, "pointwise_regularizer": null, "depthwise_constraint": null, "pointwise_constraint": null}, "inbound_nodes": [[["activation_63", 0, 0, {}]]]}, {"name": "separable_conv_2_normal_left2_3", "class_name": "SeparableConv2D", "config": {"name": "separable_conv_2_normal_left2_3", "trainable": false, "filters": 44, "kernel_size": [5, 5], "strides": [1, 1], "padding": "same", "data_format": "channels_last", "dilation_rate": [1, 1], "activation": "linear", "use_bias": false, "bias_initializer": {"class_name": "Zeros", "config": {}}, "bias_regularizer": null, "activity_regularizer": null, "bias_constraint": null, "depth_multiplier": 1, "depthwise_initializer": {"class_name": "VarianceScaling", "config": {"scale": 1.0, "mode": "fan_avg", "distribution": "uniform", "seed": null}}, "pointwise_initializer": {"class_name": "VarianceScaling", "config": {"scale": 1.0, "mode": "fan_avg", "distribution": "uniform", "seed": null}}, "depthwise_regularizer": null, "pointwise_regularizer": null, "depthwise_constraint": null, "pointwise_constraint": null}, "inbound_nodes": [[["activation_65", 0, 0, {}]]]}, {"name": "separable_conv_2_normal_right2_3", "class_name": "SeparableConv2D", "config": {"name": "separable_conv_2_normal_right2_3", "trainable": false, "filters": 44, "kernel_size": [3, 3], "strides": [1, 1], "padding": "same", "data_format": "channels_last", "dilation_rate": [1, 1], "activation": "linear", "use_bias": false, "bias_initializer": {"class_name": "Zeros", "config": {}}, "bias_regularizer": null, "activity_regularizer": null, "bias_constraint": null, "depth_multiplier": 1, "depthwise_initializer": {"class_name": "VarianceScaling", "config": {"scale": 1.0, "mode": "fan_avg", "distribution": "uniform", "seed": null}}, "pointwise_initializer": {"class_name": "VarianceScaling", "config": {"scale": 1.0, "mode": "fan_avg", "distribution": "uniform", "seed": null}}, "depthwise_regularizer": null, "pointwise_regularizer": null, "depthwise_constraint": null, "pointwise_constraint": null}, "inbound_nodes": [[["activation_67", 0, 0, {}]]]}, {"name": "separable_conv_2_normal_left5_3", "class_name": "SeparableConv2D", "config": {"name": "separable_conv_2_normal_left5_3", "trainable": false, "filters": 44, "kernel_size": [3, 3], "strides": [1, 1], "padding": "same", "data_format": "channels_last", "dilation_rate": [1, 1], "activation": "linear", "use_bias": false, "bias_initializer": {"class_name": "Zeros", "config": {}}, "bias_regularizer": null, "activity_regularizer": null, "bias_constraint": null, "depth_multiplier": 1, "depthwise_initializer": {"class_name": "VarianceScaling", "config": {"scale": 1.0, "mode": "fan_avg", "distribution": "uniform", "seed": null}}, "pointwise_initializer": {"class_name": "VarianceScaling", "config": {"scale": 1.0, "mode": "fan_avg", "distribution": "uniform", "seed": null}}, "depthwise_regularizer": null, "pointwise_regularizer": null, "depthwise_constraint": null, "pointwise_constraint": null}, "inbound_nodes": [[["activation_69", 0, 0, {}]]]}, {"name": "separable_conv_2_bn_normal_left1_3", "class_name": "BatchNormalization", "config": {"name": "separable_conv_2_bn_normal_left1_3", "trainable": false, "axis": -1, "momentum": 0.9997, "epsilon": 0.001, "center": true, "scale": true, "beta_initializer": {"class_name": "Zeros", "config": {}}, "gamma_initializer": {"class_name": "Ones", "config": {}}, "moving_mean_initializer": {"class_name": "Zeros", "config": {}}, "moving_variance_initializer": {"class_name": "Ones", "config": {}}, "beta_regularizer": null, "gamma_regularizer": null, "beta_constraint": null, "gamma_constraint": null}, "inbound_nodes": [[["separable_conv_2_normal_left1_3", 0, 0, {}]]]}, {"name": "separable_conv_2_bn_normal_right1_3", "class_name": "BatchNormalization", "config": {"name": "separable_conv_2_bn_normal_right1_3", "trainable": false, "axis": -1, "momentum": 0.9997, "epsilon": 0.001, "center": true, "scale": true, "beta_initializer": {"class_name": "Zeros", "config": {}}, "gamma_initializer": {"class_name": "Ones", "config": {}}, "moving_mean_initializer": {"class_name": "Zeros", "config": {}}, "moving_variance_initializer": {"class_name": "Ones", "config": {}}, "beta_regularizer": null, "gamma_regularizer": null, "beta_constraint": null, "gamma_constraint": null}, "inbound_nodes": [[["separable_conv_2_normal_right1_3", 0, 0, {}]]]}, {"name": "separable_conv_2_bn_normal_left2_3", "class_name": "BatchNormalization", "config": {"name": "separable_conv_2_bn_normal_left2_3", "trainable": false, "axis": -1, "momentum": 0.9997, "epsilon": 0.001, "center": true, "scale": true, "beta_initializer": {"class_name": "Zeros", "config": {}}, "gamma_initializer": {"class_name": "Ones", "config": {}}, "moving_mean_initializer": {"class_name": "Zeros", "config": {}}, "moving_variance_initializer": {"class_name": "Ones", "config": {}}, "beta_regularizer": null, "gamma_regularizer": null, "beta_constraint": null, "gamma_constraint": null}, "inbound_nodes": [[["separable_conv_2_normal_left2_3", 0, 0, {}]]]}, {"name": "separable_conv_2_bn_normal_right2_3", "class_name": "BatchNormalization", "config": {"name": "separable_conv_2_bn_normal_right2_3", "trainable": false, "axis": -1, "momentum": 0.9997, "epsilon": 0.001, "center": true, "scale": true, "beta_initializer": {"class_name": "Zeros", "config": {}}, "gamma_initializer": {"class_name": "Ones", "config": {}}, "moving_mean_initializer": {"class_name": "Zeros", "config": {}}, "moving_variance_initializer": {"class_name": "Ones", "config": {}}, "beta_regularizer": null, "gamma_regularizer": null, "beta_constraint": null, "gamma_constraint": null}, "inbound_nodes": [[["separable_conv_2_normal_right2_3", 0, 0, {}]]]}, {"name": "normal_left3_3", "class_name": "AveragePooling2D", "config": {"name": "normal_left3_3", "trainable": false, "pool_size": [3, 3], "padding": "same", "strides": [1, 1], "data_format": "channels_last"}, "inbound_nodes": [[["normal_bn_1_3", 0, 0, {}]]]}, {"name": "normal_left4_3", "class_name": "AveragePooling2D", "config": {"name": "normal_left4_3", "trainable": false, "pool_size": [3, 3], "padding": "same", "strides": [1, 1], "data_format": "channels_last"}, "inbound_nodes": [[["adjust_bn_3", 0, 0, {}]]]}, {"name": "normal_right4_3", "class_name": "AveragePooling2D", "config": {"name": "normal_right4_3", "trainable": false, "pool_size": [3, 3], "padding": "same", "strides": [1, 1], "data_format": "channels_last"}, "inbound_nodes": [[["adjust_bn_3", 0, 0, {}]]]}, {"name": "separable_conv_2_bn_normal_left5_3", "class_name": "BatchNormalization", "config": {"name": "separable_conv_2_bn_normal_left5_3", "trainable": false, "axis": -1, "momentum": 0.9997, "epsilon": 0.001, "center": true, "scale": true, "beta_initializer": {"class_name": "Zeros", "config": {}}, "gamma_initializer": {"class_name": "Ones", "config": {}}, "moving_mean_initializer": {"class_name": "Zeros", "config": {}}, "moving_variance_initializer": {"class_name": "Ones", "config": {}}, "beta_regularizer": null, "gamma_regularizer": null, "beta_constraint": null, "gamma_constraint": null}, "inbound_nodes": [[["separable_conv_2_normal_left5_3", 0, 0, {}]]]}, {"name": "normal_add_1_3", "class_name": "Add", "config": {"name": "normal_add_1_3", "trainable": false}, "inbound_nodes": [[["separable_conv_2_bn_normal_left1_3", 0, 0, {}], ["separable_conv_2_bn_normal_right1_3", 0, 0, {}]]]}, {"name": "normal_add_2_3", "class_name": "Add", "config": {"name": "normal_add_2_3", "trainable": false}, "inbound_nodes": [[["separable_conv_2_bn_normal_left2_3", 0, 0, {}], ["separable_conv_2_bn_normal_right2_3", 0, 0, {}]]]}, {"name": "normal_add_3_3", "class_name": "Add", "config": {"name": "normal_add_3_3", "trainable": false}, "inbound_nodes": [[["normal_left3_3", 0, 0, {}], ["adjust_bn_3", 0, 0, {}]]]}, {"name": "normal_add_4_3", "class_name": "Add", "config": {"name": "normal_add_4_3", "trainable": false}, "inbound_nodes": [[["normal_left4_3", 0, 0, {}], ["normal_right4_3", 0, 0, {}]]]}, {"name": "normal_add_5_3", "class_name": "Add", "config": {"name": "normal_add_5_3", "trainable": false}, "inbound_nodes": [[["separable_conv_2_bn_normal_left5_3", 0, 0, {}], ["normal_bn_1_3", 0, 0, {}]]]}, {"name": "normal_concat_3", "class_name": "Concatenate", "config": {"name": "normal_concat_3", "trainable": false, "axis": -1}, "inbound_nodes": [[["adjust_bn_3", 0, 0, {}], ["normal_add_1_3", 0, 0, {}], ["normal_add_2_3", 0, 0, {}], ["normal_add_3_3", 0, 0, {}], ["normal_add_4_3", 0, 0, {}], ["normal_add_5_3", 0, 0, {}]]]}, {"name": "activation_71", "class_name": "Activation", "config": {"name": "activation_71", "trainable": false, "activation": "relu"}, "inbound_nodes": [[["normal_concat_3", 0, 0, {}]]]}, {"name": "activation_70", "class_name": "Activation", "config": {"name": "activation_70", "trainable": false, "activation": "relu"}, "inbound_nodes": [[["normal_concat_2", 0, 0, {}]]]}, {"name": "reduction_conv_1_reduce_4", "class_name": "Conv2D", "config": {"name": "reduction_conv_1_reduce_4", "trainable": false, "filters": 88, "kernel_size": [1, 1], "strides": [1, 1], "padding": "same", "data_format": "channels_last", "dilation_rate": [1, 1], "activation": "linear", "use_bias": false, "kernel_initializer": {"class_name": "VarianceScaling", "config": {"scale": 2.0, "mode": "fan_in", "distribution": "normal", "seed": null}}, "bias_initializer": {"class_name": "Zeros", "config": {}}, "kernel_regularizer": null, "bias_regularizer": null, "activity_regularizer": null, "kernel_constraint": null, "bias_constraint": null}, "inbound_nodes": [[["activ…
_rate": [1, 1], "activation": "linear", "use_bias": false, "kernel_initializer": {"class_name": "VarianceScaling", "config": {"scale": 2.0, "mode": "fan_in", "distribution": "normal", "seed": null}}, "bias_initializer": {"class_name": "Zeros", "config": {}}, "kernel_regularizer": null, "bias_regularizer": null, "activity_regularizer": null, "kernel_constraint": null, "bias_constraint": null}, "inbound_nodes": [[["activation_165", 0, 0, {}]]]}, {"name": "adjust_bn_11", "class_name": "BatchNormalization", "config": {"name": "adjust_bn_11", "trainable": false, "axis": -1, "momentum": 0.9997, "epsilon": 0.001, "center": true, "scale": true, "beta_initializer": {"class_name": "Zeros", "config": {}}, "gamma_initializer": {"class_name": "Ones", "config": {}}, "moving_mean_initializer": {"class_name": "Zeros", "config": {}}, "moving_variance_initializer": {"class_name": "Ones", "config": {}}, "beta_regularizer": null, "gamma_regularizer": null, "beta_constraint": null, "gamma_constraint": null}, "inbound_nodes": [[["adjust_conv_projection_11", 0, 0, {}]]]}, {"name": "normal_bn_1_11", "class_name": "BatchNormalization", "config": {"name": "normal_bn_1_11", "trainable": false, "axis": -1, "momentum": 0.9997, "epsilon": 0.001, "center": true, "scale": true, "beta_initializer": {"class_name": "Zeros", "config": {}}, "gamma_initializer": {"class_name": "Ones", "config": {}}, "moving_mean_initializer": {"class_name": "Zeros", "config": {}}, "moving_variance_initializer": {"class_name": "Ones", "config": {}}, "beta_regularizer": null, "gamma_regularizer": null, "beta_constraint": null, "gamma_constraint": null}, "inbound_nodes": [[["normal_conv_1_11", 0, 0, {}]]]}, {"name": "activation_166", "class_name": "Activation", "config": {"name": "activation_166", "trainable": false, "activation": "relu"}, "inbound_nodes": [[["normal_bn_1_11", 0, 0, {}]]]}, {"name": "activation_168", "class_name": "Activation", "config": {"name": "activation_168", "trainable": false, "activation": "relu"}, "inbound_nodes": [[["adjust_bn_11", 0, 0, {}]]]}, {"name": "activation_170", "class_name": "Activation", "config": {"name": "activation_170", "trainable": false, "activation": "relu"}, "inbound_nodes": [[["adjust_bn_11", 0, 0, {}]]]}, {"name": "activation_172", "class_name": "Activation", "config": {"name": "activation_172", "trainable": false, "activation": "relu"}, "inbound_nodes": [[["adjust_bn_11", 0, 0, {}]]]}, {"name": "activation_174", "class_name": "Activation", "config": {"name": "activation_174", "trainable": false, "activation": "relu"}, "inbound_nodes": [[["normal_bn_1_11", 0, 0, {}]]]}, {"name": "separable_conv_1_normal_left1_11", "class_name": "SeparableConv2D", "config": {"name": "separable_conv_1_normal_left1_11", "trainable": false, "filters": 176, "kernel_size": [5, 5], "strides": [1, 1], "padding": "same", "data_format": "channels_last", "dilation_rate": [1, 1], "activation": "linear", "use_bias": false, "bias_initializer": {"class_name": "Zeros", "config": {}}, "bias_regularizer": null, "activity_regularizer": null, "bias_constraint": null, "depth_multiplier": 1, "depthwise_initializer": {"class_name": "VarianceScaling", "config": {"scale": 1.0, "mode": "fan_avg", "distribution": "uniform", "seed": null}}, "pointwise_initializer": {"class_name": "VarianceScaling", "config": {"scale": 1.0, "mode": "fan_avg", "distribution": "uniform", "seed": null}}, "depthwise_regularizer": null, "pointwise_regularizer": null, "depthwise_constraint": null, "pointwise_constraint": null}, "inbound_nodes": [[["activation_166", 0, 0, {}]]]}, {"name": "separable_conv_1_normal_right1_11", "class_name": "SeparableConv2D", "config": {"name": "separable_conv_1_normal_right1_11", "trainable": false, "filters": 176, "kernel_size": [3, 3], "strides": [1, 1], "padding": "same", "data_format": "channels_last", "dilation_rate": [1, 1], "activation": "linear", "use_bias": false, "bias_initializer": {"class_name": "Zeros", "config": {}}, "bias_regularizer": null, "activity_regularizer": null, "bias_constraint": null, "depth_multiplier": 1, "depthwise_initializer": {"class_name": "VarianceScaling", "config": {"scale": 1.0, "mode": "fan_avg", "distribution": "uniform", "seed": null}}, "pointwise_initializer": {"class_name": "VarianceScaling", "config": {"scale": 1.0, "mode": "fan_avg", "distribution": "uniform", "seed": null}}, "depthwise_regularizer": null, "pointwise_regularizer": null, "depthwise_constraint": null, "pointwise_constraint": null}, "inbound_nodes": [[["activation_168", 0, 0, {}]]]}, {"name": "separable_conv_1_normal_left2_11", "class_name": "SeparableConv2D", "config": {"name": "separable_conv_1_normal_left2_11", "trainable": false, "filters": 176, "kernel_size": [5, 5], "strides": [1, 1], "padding": "same", "data_format": "channels_last", "dilation_rate": [1, 1], "activation": "linear", "use_bias": false, "bias_initializer": {"class_name": "Zeros", "config": {}}, "bias_regularizer": null, "activity_regularizer": null, "bias_constraint": null, "depth_multiplier": 1, "depthwise_initializer": {"class_name": "VarianceScaling", "config": {"scale": 1.0, "mode": "fan_avg", "distribution": "uniform", "seed": null}}, "pointwise_initializer": {"class_name": "VarianceScaling", "config": {"scale": 1.0, "mode": "fan_avg", "distribution": "uniform", "seed": null}}, "depthwise_regularizer": null, "pointwise_regularizer": null, "depthwise_constraint": null, "pointwise_constraint": null}, "inbound_nodes": [[["activation_170", 0, 0, {}]]]}, {"name": "separable_conv_1_normal_right2_11", "class_name": "SeparableConv2D", "config": {"name": "separable_conv_1_normal_right2_11", "trainable": false, "filters": 176, "kernel_size": [3, 3], "strides": [1, 1], "padding": "same", "data_format": "channels_last", "dilation_rate": [1, 1], "activation": "linear", "use_bias": false, "bias_initializer": {"class_name": "Zeros", "config": {}}, "bias_regularizer": null, "activity_regularizer": null, "bias_constraint": null, "depth_multiplier": 1, "depthwise_initializer": {"class_name": "VarianceScaling", "config": {"scale": 1.0, "mode": "fan_avg", "distribution": "uniform", "seed": null}}, "pointwise_initializer": {"class_name": "VarianceScaling", "config": {"scale": 1.0, "mode": "fan_avg", "distribution": "uniform", "seed": null}}, "depthwise_regularizer": null, "pointwise_regularizer": null, "depthwise_constraint": null, "pointwise_constraint": null}, "inbound_nodes": [[["activation_172", 0, 0, {}]]]}, {"name": "separable_conv_1_normal_left5_11", "class_name": "SeparableConv2D", "config": {"name": "separable_conv_1_normal_left5_11", "trainable": false, "filters": 176, "kernel_size": [3, 3], "strides": [1, 1], "padding": "same", "data_format": "channels_last", "dilation_rate": [1, 1], "activation": "linear", "use_bias": false, "bias_initializer": {"class_name": "Zeros", "config": {}}, "bias_regularizer": null, "activity_regularizer": null, "bias_constraint": null, "depth_multiplier": 1, "depthwise_initializer": {"class_name": "VarianceScaling", "config": {"scale": 1.0, "mode": "fan_avg", "distribution": "uniform", "seed": null}}, "pointwise_initializer": {"class_name": "VarianceScaling", "config": {"scale": 1.0, "mode": "fan_avg", "distribution": "uniform", "seed": null}}, "depthwise_regularizer": null, "pointwise_regularizer": null, "depthwise_constraint": null, "pointwise_constraint": null}, "inbound_nodes": [[["activation_174", 0, 0, {}]]]}, {"name": "separable_conv_1_bn_normal_left1_11", "class_name": "BatchNormalization", "config": {"name": "separable_conv_1_bn_normal_left1_11", "trainable": false, "axis": -1, "momentum": 0.9997, "epsilon": 0.001, "center": true, "scale": true, "beta_initializer": {"class_name": "Zeros", "config": {}}, "gamma_initializer": {"class_name": "Ones", "config": {}}, "moving_mean_initializer": {"class_name": "Zeros", "config": {}}, "moving_variance_initializer": {"class_name": "Ones", "config": {}}, "beta_regularizer": null, "gamma_regularizer": null, "beta_constraint": null, "gamma_constraint": null}, "inbound_nodes": [[["separable_conv_1_normal_left1_11", 0, 0, {}]]]}, {"name": "separable_conv_1_bn_normal_right1_11", "class_name": "BatchNormalization", "config": {"name": "separable_conv_1_bn_normal_right1_11", "trainable": false, "axis": -1, "momentum": 0.9997, "epsilon": 0.001, "center": true, "scale": true, "beta_initializer": {"class_name": "Zeros", "config": {}}, "gamma_initializer": {"class_name": "Ones", "config": {}}, "moving_mean_initializer": {"class_name": "Zeros", "config": {}}, "moving_variance_initializer": {"class_name": "Ones", "config": {}}, "beta_regularizer": null, "gamma_regularizer": null, "beta_constraint": null, "gamma_constraint": null}, "inbound_nodes": [[["separable_conv_1_normal_right1_11", 0, 0, {}]]]}, {"name": "separable_conv_1_bn_normal_left2_11", "class_name": "BatchNormalization", "config": {"name": "separable_conv_1_bn_normal_left2_11", "trainable": false, "axis": -1, "momentum": 0.9997, "epsilon": 0.001, "center": true, "scale": true, "beta_initializer": {"class_name": "Zeros", "config": {}}, "gamma_initializer": {"class_name": "Ones", "config": {}}, "moving_mean_initializer": {"class_name": "Zeros", "config": {}}, "moving_variance_initializer": {"class_name": "Ones", "config": {}}, "beta_regularizer": null, "gamma_regularizer": null, "beta_constraint": null, "gamma_constraint": null}, "inbound_nodes": [[["separable_conv_1_normal_left2_11", 0, 0, {}]]]}, {"name": "separable_conv_1_bn_normal_right2_11", "class_name": "BatchNormalization", "config": {"name": "separable_conv_1_bn_normal_right2_11", "trainable": false, "axis": -1, "momentum": 0.9997, "epsilon": 0.001, "center": true, "scale": true, "beta_initializer": {"class_name": "Zeros", "config": {}}, "gamma_initializer": {"class_name": "Ones", "config": {}}, "moving_mean_initializer": {"class_name": "Zeros", "config": {}}, "moving_variance_initializer": {"class_name": "Ones", "config": {}}, "beta_regularizer": null, "gamma_regularizer": null, "beta_constraint": null, "gamma_constraint": null}, "inbound_nodes": [[["separable_conv_1_normal_right2_11", 0, 0, {}]]]}, {"name": "separable_conv_1_bn_normal_left5_11", "class_name": "BatchNormalization", "config": {"name": "separable_conv_1_bn_normal_left5_11", "trainable": false, "axis": -1, "momentum": 0.9997, "epsilon": 0.001, "center": true, "scale": true, "beta_initializer": {"class_name": "Zeros", "config": {}}, "gamma_initializer": {"class_name": "Ones", "config": {}}, "moving_mean_initializer": {"class_name": "Zeros", "config": {}}, "moving_variance_initializer": {"class_name": "Ones", "config": {}}, "beta_regularizer": null, "gamma_regularizer": null, "beta_constraint": null, "gamma_constraint": null}, "inbound_nodes": [[["separable_conv_1_normal_left5_11", 0, 0, {}]]]}, {"name": "activation_167", "class_name": "Activation", "config": {"name": "activation_167", "trainable": false, "activation": "relu"}, "inbound_nodes": [[["separable_conv_1_bn_normal_left1_11", 0, 0, {}]]]}, {"name": "activation_169", "class_name": "Activation", "config": {"name": "activation_169", "trainable": false, "activation": "relu"}, "inbound_nodes": [[["separable_conv_1_bn_normal_right1_11", 0, 0, {}]]]}, {"name": "activation_171", "class_name": "Activation", "config": {"name": "activation_171", "trainable": false, "activation": "relu"}, "inbound_nodes": [[["separable_conv_1_bn_normal_left2_11", 0, 0, {}]]]}, {"name": "activation_173", "class_name": "Activation", "config": {"name": "activation_173", "trainable": false, "activation": "relu"}, "inbound_nodes": [[["separable_conv_1_bn_normal_right2_11", 0, 0, {}]]]}, {"name": "activation_175", "class_name": "Activation", "config": {"name": "activation_175", "trainable": false, "activation": "relu"}, "inbound_nodes": [[["separable_conv_1_bn_normal_left5_11", 0, 0, {}]]]}, {"name": "separable_conv_2_normal_left1_11", "class_name": "SeparableConv2D", "config": {"name": "separable_conv_2_normal_left1_11", "trainable": false, "filters": 176, "kernel_size": [5, 5], "strides": [1, 1], "padding": "same", "data_format": "channels_last", "dilation_rate": [1, 1], "activation": "linear", "use_bias": false, "bias_initializer": {"class_name": "Zeros", "config": {}}, "bias_regularizer": null, "activity_regularizer": null, "bias_constraint": null, "depth_multiplier": 1, "depthwise_initializer": {"class_name": "VarianceScaling", "config": {"scale": 1.0, "mode": "fan_avg", "distribution": "uniform", "seed": null}}, "pointwise_initializer": {"class_name": "VarianceScaling", "config": {"scale": 1.0, "mode": "fan_avg", "distribution": "uniform", "seed": null}}, "depthwise_regularizer": null, "pointwise_regularizer": null, "depthwise_constraint": null, "pointwise_constraint": null}, "inbound_nodes": [[["activation_167", 0, 0, {}]]]}, {"name": "separable_conv_2_normal_right1_11", "class_name": "SeparableConv2D", "config": {"name": "separable_conv_2_normal_right1_11", "trainable": false, "filters": 176, "kernel_size": [3, 3], "strides": [1, 1], "padding": "same", "data_format": "channels_last", "dilation_rate": [1, 1], "activation": "linear", "use_bias": false, "bias_initializer": {"class_name": "Zeros", "config": {}}, "bias_regularizer": null, "activity_regularizer": null, "bias_constraint": null, "depth_multiplier": 1, "depthwise_initializer": {"class_name": "VarianceScaling", "config": {"scale": 1.0, "mode": "fan_avg", "distribution": "uniform", "seed": null}}, "pointwise_initializer": {"class_name": "VarianceScaling", "config": {"scale": 1.0, "mode": "fan_avg", "distribution": "uniform", "seed": null}}, "depthwise_regularizer": null, "pointwise_regularizer": null, "depthwise_constraint": null, "pointwise_constraint": null}, "inbound_nodes": [[["activation_169", 0, 0, {}]]]}, {"name": "separable_conv_2_normal_left2_11", "class_name": "SeparableConv2D", "config": {"name": "separable_conv_2_normal_left2_11", "trainable": false, "filters": 176, "kernel_size": [5, 5], "strides": [1, 1], "padding": "same", "data_format": "channels_last", "dilation_rate": [1, 1], "activation": "linear", "use_bias": false, "bias_initializer": {"class_name": "Zeros", "config": {}}, "bias_regularizer": null, "activity_regularizer": null, "bias_constraint": null, "depth_multiplier": 1, "depthwise_initializer": {"class_name": "VarianceScaling", "config": {"scale": 1.0, "mode": "fan_avg", "distribution": "uniform", "seed": null}}, "pointwise_initializer": {"class_name": "VarianceScaling", "config": {"scale": 1.0, "mode": "fan_avg", "distribution": "uniform", "seed": null}}, "depthwise_regularizer": null, "pointwise_regularizer": null, "depthwise_constraint": null, "pointwise_constraint": null}, "inbound_nodes": [[["activation_171", 0, 0, {}]]]}, {"name": "separable_conv_2_normal_right2_11", "class_name": "SeparableConv2D", "config": {"name": "separable_conv_2_normal_right2_11", "trainable": false, "filters": 176, "kernel_size": [3, 3], "strides": [1, 1], "padding": "same", "data_format": "channels_last", "dilation_rate": [1, 1], "activation": "linear", "use_bias": false, "bias_initializer": {"class_name": "Zeros", "config": {}}, "bias_regularizer": null, "activity_regularizer": null, "bias_constraint": null, "depth_multiplier": 1, "depthwise_initializer": {"class_name": "VarianceScaling", "config": {"scale": 1.0, "mode": "fan_avg", "distribution": "uniform", "seed": null}}, "pointwise_initializer": {"class_name": "VarianceScaling", "config": {"scale": 1.0, "mode": "fan_avg", "distribution": "uniform", "seed": null}}, "depthwise_regularizer": null, "pointwise_regularizer": null, "depthwise_constraint": null, "pointwise_constraint": null}, "inbound_nodes": [[["activation_173", 0, 0, {}]]]}, {"name": "separable_conv_2_normal_left5_11", "class_name": "SeparableConv2D", "config": {"name": "separable_conv_2_normal_left5_11", "trainable": false, "filters": 176, "kernel_size": [3, 3], "strides": [1, 1], "padding": "same", "data_format": "channels_last", "dilation_rate": [1, 1], "activation": "linear", "use_bias": false, "bias_initializer": {"class_name": "Zeros", "config": {}}, "bias_regularizer": null, "activity_regularizer": null, "bias_constraint": null, "depth_multiplier": 1, "depthwise_initializer": {"class_name": "VarianceScaling", "config": {"scale": 1.0, "mode": "fan_avg", "distribution": "uniform", "seed": null}}, "pointwise_initializer": {"class_name": "VarianceScaling", "config": {"scale": 1.0, "mode": "fan_avg", "distribution": "uniform", "seed": null}}, "depthwise_regularizer": null, "pointwise_regularizer": null, "depthwise_constraint": null, "pointwise_constraint": null}, "inbound_nodes": [[["activation_175", 0, 0, {}]]]}, {"name": "separable_conv_2_bn_normal_left1_11", "class_name": "BatchNormalization", "config": {"name": "separable_conv_2_bn_normal_left1_11", "trainable": false, "axis": -1, "momentum": 0.9997, "epsilon": 0.001, "center": true, "scale": true, "beta_initializer": {"class_name": "Zeros", "config": {}}, "gamma_initializer": {"class_name": "Ones", "config": {}}, "moving_mean_initializer": {"class_name": "Zeros", "config": {}}, "moving_variance_initializer": {"class_name": "Ones", "config": {}}, "beta_regularizer": null, "gamma_regularizer": null, "beta_constraint": null, "gamma_constraint": null}, "inbound_nodes": [[["separable_conv_2_normal_left1_11", 0, 0, {}]]]}, {"name": "separable_conv_2_bn_normal_right1_11", "class_name": "BatchNormalization", "config": {"name": "separable_conv_2_bn_normal_right1_11", "trainable": false, "axis": -1, "momentum": 0.9997, "epsilon": 0.001, "center": true, "scale": true, "beta_initializer": {"class_name": "Zeros", "config": {}}, "gamma_initializer": {"class_name": "Ones", "config": {}}, "moving_mean_initializer": {"class_name": "Zeros", "config": {}}, "moving_variance_initializer": {"class_name": "Ones", "config": {}}, "beta_regularizer": null, "gamma_regularizer": null, "beta_constraint": null, "gamma_constraint": null}, "inbound_nodes": [[["separable_conv_2_normal_right1_11", 0, 0, {}]]]}, {"name": "separable_conv_2_bn_normal_left2_11", "class_name": "BatchNormalization", "config": {"name": "separable_conv_2_bn_normal_left2_11", "trainable": false, "axis": -1, "momentum": 0.9997, "epsilon": 0.001, "center": true, "scale": true, "beta_initializer": {"class_name": "Zeros", "config": {}}, "gamma_initializer": {"class_name": "Ones", "config": {}}, "moving_mean_initializer": {"class_name": "Zeros", "config": {}}, "moving_variance_initializer": {"class_name": "Ones", "config": {}}, "beta_regularizer": null, "gamma_regularizer": null, "beta_constraint": null, "gamma_constraint": null}, "inbound_nodes": [[["separable_conv_2_normal_left2_11", 0, 0, {}]]]}, {"name": "separable_conv_2_bn_normal_right2_11", "class_name": "BatchNormalization", "config": {"name": "separable_conv_2_bn_normal_right2_11", "trainable": false, "axis": -1, "momentum": 0.9997, "epsilon": 0.001, "center": true, "scale": true, "beta_initializer": {"class_name": "Zeros", "config": {}}, "gamma_initializer": {"class_name": "Ones", "config": {}}, "moving_mean_initializer": {"class_name": "Zeros", "config": {}}, "moving_variance_initializer": {"class_name": "Ones", "config": {}}, "beta_regularizer": null, "gamma_regularizer": null, "beta_constraint": null, "gamma_constraint": null}, "inbound_nodes": [[["separable_conv_2_normal_right2_11", 0, 0, {}]]]}, {"name": "normal_left3_11", "class_name": "AveragePooling2D", "config": {"name": "normal_left3_11", "trainable": false, "pool_size": [3, 3], "padding": "same", "strides": [1, 1], "data_format": "channels_last"}, "inbound_nodes": [[["normal_bn_1_11", 0, 0, {}]]]}, {"name": "normal_left4_11", "class_name": "AveragePooling2D", "config": {"name": "normal_left4_11", "trainable": false, "pool_size": [3, 3], "padding": "same", "strides": [1, 1], "data_format": "channels_last"}, "inbound_nodes": [[["adjust_bn_11", 0, 0, {}]]]}, {"name": "normal_right4_11", "class_name": "AveragePooling2D", "config": {"name": "normal_right4_11", "trainable": false, "pool_size": [3, 3], "padding": "same", "strides": [1, 1], "data_format": "channels_last"}, "inbound_nodes": [[["adjust_bn_11", 0, 0, {}]]]}, {"name": "separable_conv_2_bn_normal_left5_11", "class_name": "BatchNormalization", "config": {"name": "separable_conv_2_bn_normal_left5_11", "trainable": false, "axis": -1, "momentum": 0.9997, "epsilon": 0.001, "center": true, "scale": true, "beta_initializer": {"class_name": "Zeros", "config": {}}, "gamma_initializer": {"class_name": "Ones", "config": {}}, "moving_mean_initializer": {"class_name": "Zeros", "config": {}}, "moving_variance_initializer": {"class_name": "Ones", "config": {}}, "beta_regularizer": null, "gamma_regularizer": null, "beta_constraint": null, "gamma_constraint": null}, "inbound_nodes": [[["separable_conv_2_normal_left5_11", 0, 0, {}]]]}, {"name": "normal_add_1_11", "class_name": "Add", "config": {"name": "normal_add_1_11", "trainable": false}, "inbound_nodes": [[["separable_conv_2_bn_normal_left1_11", 0, 0, {}], ["separable_conv_2_bn_normal_right1_11", 0, 0, {}]]]}, {"name": "normal_add_2_11", "class_name": "Add", "config": {"name": "normal_add_2_11", "trainable": false}, "inbound_nodes": [[["separable_conv_2_bn_normal_left2_11", 0, 0, {}], ["separable_conv_2_bn_normal_right2_11", 0, 0, {}]]]}, {"name": "normal_add_3_11", "class_name": "Add", "config": {"name": "normal_add_3_11", "trainable": false}, "inbound_nodes": [[["normal_left3_11", 0, 0, {}], ["adjust_bn_11", 0, 0, {}]]]}, {"name": "normal_add_4_11", "class_name": "Add", "config": {"name": "normal_add_4_11", "trainable": false}, "inbound_nodes": [[["normal_left4_11", 0, 0, {}], ["normal_right4_11", 0, 0, {}]]]}, {"name": "normal_add_5_11", "class_name": "Add", "config": {"name": "normal_add_5_11", "trainable": false}, "inbound_nodes": [[["separable_conv_2_bn_normal_left5_11", 0, 0, {}], ["normal_bn_1_11", 0, 0, {}]]]}, {"name": "normal_concat_11", "class_name": "Concatenate", "config": {"name": "normal_concat_11", "trainable": false, "axis": -1}, "inbound_nodes": [[["adjust_bn_11", 0, 0, {}], ["normal_add_1_11", 0, 0, {}], ["normal_add_2_11", 0, 0, {}], ["normal_add_3_11", 0, 0, {}], ["normal_add_4_11", 0, 0, {}], ["normal_add_5_11", 0, 0, {}]]]}, {"name": "activation_176", "class_name": "Activation", "config": {"name": "activation_176", "trainable": false, "activation": "relu"}, "inbound_nodes": [[["normal_concat_10", 0, 0, {}]]]}, {"name": "activation_177", "class_name": "Activation", "config": {"name": "activation_177", "trainable": false, "activation": "relu"}, "inbound_nodes": [[["normal_concat_11", 0, 0, {}]]]}, {"name": "adjust_conv_projection_12", "class_name": "Conv2D", "config": {"name": "adjust_conv_projection_12", "trainable": false, "filters": 176, "kernel_size": [1, 1], "strides": [1, 1], "padding": "same", "data_format": "channels_last", "dilation_rate": [1, 1], "activation": "linear", "use_bias": false, "kernel_initializer": {"class_name": "VarianceScaling", "config": {"scale": 2.0, "mode": "fan_in", "distribution": "normal", "seed": null}}, "bias_initializer": {"class_name": "Zeros", "config": {}}, "kernel_regularizer": null, "bias_regularizer": null, "activity_regularizer": null, "kernel_constraint": null, "bias_constraint": null}, "inbound_nodes": [[["activation_176", 0, 0, {}]]]}, {"name": "normal_conv_1_12", "class_name": "Conv2D", "config": {"name": "normal_conv_1_12", "trainable": false, "filters": 176, "kernel_size": [1, 1], "strides": [1, 1], "padding": "same", "data_format": "channels_last", "dilation_rate": [1, 1], "activation": "linear", "use_bias": false, "kernel_initializer": {"class_name": "VarianceScaling", "config": {"scale": 2.0, "mode": "fan_in", "distribution": "normal", "seed": null}}, "bias_initializer": {"class_name": "Zeros", "config": {}}, "kernel_regularizer": null, "bias_regularizer": null, "activity_regularizer": null, "kernel_constraint": null, "bias_constraint": null}, "inbound_nodes": [[["activation_177", 0, 0, {}]]]}, {"name": "adjust_bn_12", "class_name": "BatchNormalization", "config": {"name": "adjust_bn_12", "trainable": false, "axis": -1, "momentum": 0.9997, "epsilon": 0.001, "center": true, "scale": true, "beta_initializer": {"class_name": "Zeros", "config": {}}, "gamma_initializer": {"class_name": "Ones", "config": {}}, "moving_mean_initializer": {"class_name": "Zeros", "config": {}}, "moving_variance_initializer": {"class_name": "Ones", "config": {}}, "beta_regularizer": null, "gamma_regularizer": null, "beta_constraint": null, "gamma_constraint": null}, "inbound_nodes": [[["adjust_conv_projection_12", 0, 0, {}]]]}, {"name": "normal_bn_1_12", "class_name": "BatchNormalization", "config": {"name": "normal_bn_1_12", "trainable": false, "axis": -1, "momentum": 0.9997, "epsilon": 0.001, "center": true, "scale": true, "beta_initializer": {"class_name": "Zeros", "config": {}}, "gamma_initializer": {"class_name": "Ones", "config": {}}, "moving_mean_initializer": {"class_name": "Zeros", "config": {}}, "moving_variance_initializer": {"class_name": "Ones", "config": {}}, "beta_regularizer": null, "gamma_regularizer": null, "beta_constraint": null, "gamma_constraint": null}, "inbound_nodes": [[["normal_conv_1_12", 0, 0, {}]]]}, {"name": "activation_178", "class_name": "Activation", "config": {"name": "activation_178", "trainable": false, "activation": "relu"}, "inbound_nodes": [[["normal_bn_1_12", 0, 0, {}]]]}, {"name": "activation_180", "class_name": "Activation", "config": {"name": "activation_180", "trainable": false, "activation": "relu"}, "inbound_nodes": [[["adjust_bn_12", 0, 0, {}]]]}, {"name": "activation_182", "class_name": "Activation", "config": {"name": "activation_182", "trainable": false, "activation": "relu"}, "inbound_nodes": [[["adjust_bn_12", 0, 0, {}]]]}, {"name": "activation_184", "class_name": "Activation", "config": {"name": "activation_184", "trainable": false, "activation": "relu"}, "inbound_nodes": [[["adjust_bn_12", 0, 0, {}]]]}, {"name": "activation_186", "class_name": "Activation", "config": {"name": "activation_186", "trainable": false, "activation": "relu"}, "inbound_nodes": [[["normal_bn_1_12", 0, 0, {}]]]}, {"name": "separable_conv_1_normal_left1_12", "class_name": "SeparableConv2D", "config": {"name": "separable_conv_1_normal_left1_12", "trainable": false, "filters": 176, "kernel_size": [5, 5], "strides": [1, 1], "padding": "same", "data_format": "channels_last", "dilation_rate": [1, 1], "activation": "linear", "use_bias": false, "bias_initializer": {"class_name": "Zeros", "config": {}}, "bias_regularizer": null, "activity_regularizer": null, "bias_constraint": null, "depth_multiplier": 1, "depthwise_initializer": {"class_name": "VarianceScaling", "config": {"scale": 1.0, "mode": "fan_avg", "distribution": "uniform", "seed": null}}, "pointwise_initializer": {"class_name": "VarianceScaling", "config": {"scale": 1.0, "mode": "fan_avg", "distribution": "uniform", "seed": null}}, "depthwise_regularizer": null, "pointwise_regularizer": null, "depthwise_constraint": null, "pointwise_constraint": null}, "inbound_nodes": [[["activation_178", 0, 0, {}]]]}, {"name": "separable_conv_1_normal_right1_12", "class_name": "SeparableConv2D", "config": {"name": "separable_conv_1_normal_right1_12", "trainable": false, "filters": 176, "kernel_size": [3, 3], "strides": [1, 1], "padding": "same", "data_format": "channels_last", "dilation_rate": [1, 1], "activation": "linear", "use_bias": false, "bias_initializer": {"class_name": "Zeros", "config": {}}, "bias_regularizer": null, "activity_regularizer": null, "bias_constraint": null, "depth_multiplier": 1, "depthwise_initializer": {"class_name": "VarianceScaling", "config": {"scale": 1.0, "mode": "fan_avg", "distribution": "uniform", "seed": null}}, "pointwise_initializer": {"class_name": "VarianceScaling", "config": {"scale": 1.0, "mode": "fan_avg", "distribution": "uniform", "seed": null}}, "depthwise_regularizer": null, "pointwise_regularizer": null, "depthwise_constraint": null, "pointwise_constraint": null}, "inbound_nodes": [[["activation_180", 0, 0, {}]]]}, {"name": "separable_conv_1_normal_left2_12", "class_name": "SeparableConv2D", "config": {"name": "separable_conv_1_normal_left2_12", "trainable": false, "filters": 176, "kernel_size": [5, 5], "strides": [1, 1], "padding": "same", "data_format": "channels_last", "dilation_rate": [1, 1], "activation": "linear", "use_bias": false, "bias_initializer": {"class_name": "Zeros", "config": {}}, "bias_regularizer": null, "activity_regularizer": null, "bias_constraint": null, "depth_multiplier": 1, "depthwise_initializer": {"class_name": "VarianceScaling", "config": {"scale": 1.0, "mode": "fan_avg", "distribution": "uniform", "seed": null}}, "pointwise_initializer": {"class_name": "VarianceScaling", "config": {"scale": 1.0, "mode": "fan_avg", "distribution": "uniform", "seed": null}}, "depthwise_regularizer": null, "pointwise_regularizer": null, "depthwise_constraint": null, "pointwise_constraint": null}, "inbound_nodes": [[["activation_182", 0, 0, {}]]]}, {"name": "separable_conv_1_normal_right2_12", "class_name": "SeparableConv2D", "config": {"name": "separable_conv_1_normal_right2_12", "trainable": false, "filters": 176, "kernel_size": [3, 3], "strides": [1, 1], "padding": "same", "data_format": "channels_last", "dilation_rate": [1, 1], "activation": "linear", "use_bias": false, "bias_initializer": {"class_name": "Zeros", "config": {}}, "bias_regularizer": null, "activity_regularizer": null, "bias_constraint": null, "depth_multiplier": 1, "depthwise_initializer": {"class_name": "VarianceScaling", "config": {"scale": 1.0, "mode": "fan_avg", "distribution": "uniform", "seed": null}}, "pointwise_initializer": {"class_name": "VarianceScaling", "config": {"scale": 1.0, "mode": "fan_avg", "distribution": "uniform", "seed": null}}, "depthwise_regularizer": null, "pointwise_regularizer": null, "depthwise_constraint": null, "pointwise_constraint": null}, "inbound_nodes": [[["activation_184", 0, 0, {}]]]}, {"name": "separable_conv_1_normal_left5_12", "class_name": "SeparableConv2D", "config": {"name": "separable_conv_1_normal_left5_12", "trainable": false, "filters": 176, "kernel_size": [3, 3], "strides": [1, 1], "padding": "same", "data_format": "channels_last", "dilation_rate": [1, 1], "activation": "linear", "use_bias": false, "bias_initializer": {"class_name": "Zeros", "config": {}}, "bias_regularizer": null, "activity_regularizer": null, "bias_constraint": null, "depth_multiplier": 1, "depthwise_initializer": {"class_name": "VarianceScaling", "config": {"scale": 1.0, "mode": "fan_avg", "distribution": "uniform", "seed": null}}, "pointwise_initializer": {"class_name": "VarianceScaling", "config": {"scale": 1.0, "mode": "fan_avg", "distribution": "uniform", "seed": null}}, "depthwise_regularizer": null, "pointwise_regularizer": null, "depthwise_constraint": null, "pointwise_constraint": null}, "inbound_nodes": [[["activation_186", 0, 0, {}]]]}, {"name": "separable_conv_1_bn_normal_left1_12", "class_name": "BatchNormalization", "config": {"name": "separable_conv_1_bn_normal_left1_12", "trainable": false, "axis": -1, "momentum": 0.9997, "epsilon": 0.001, "center": true, "scale": true, "beta_initializer": {"class_name": "Zeros", "config": {}}, "gamma_initializer": {"class_name": "Ones", "config": {}}, "moving_mean_initializer": {"class_name": "Zeros", "config": {}}, "moving_variance_initializer": {"class_name": "Ones", "config": {}}, "beta_regularizer": null, "gamma_regularizer": null, "beta_constraint": null, "gamma_constraint": null}, "inbound_nodes": [[["separable_conv_1_normal_left1_12", 0, 0, {}]]]}, {"name": "separable_conv_1_bn_normal_right1_12", "class_name": "BatchNormalization", "config": {"name": "separable_conv_1_bn_normal_right1_12", "trainable": false, "axis": -1, "momentum": 0.9997, "epsilon": 0.001, "center": true, "scale": true, "beta_initializer": {"class_name": "Zeros", "config": {}}, "gamma_initializer": {"class_name": "Ones", "config": {}}, "moving_mean_initializer": {"class_name": "Zeros", "config": {}}, "moving_variance_initializer": {"class_name": "Ones", "config": {}}, "beta_regularizer": null, "gamma_regularizer": null, "beta_constraint": null, "gamma_constraint": null}, "inbound_nodes": [[["separable_conv_1_normal_right1_12", 0, 0, {}]]]}, {"name": "separable_conv_1_bn_normal_left2_12", "class_name": "BatchNormalization", "config": {"name": "separable_conv_1_bn_normal_left2_12", "trainable": false, "axis": -1, "momentum": 0.9997, "epsilon": 0.001, "center": true, "scale": true, "beta_initializer": {"class_name": "Zeros", "config": {}}, "gamma_initializer": {"class_name": "Ones", "config": {}}, "moving_mean_initializer": {"class_name": "Zeros", "config": {}}, "moving_variance_initializer": {"class_name": "Ones", "config": {}}, "beta_regularizer": null, "gamma_regularizer": null, "beta_constraint": null, "gamma_constraint": null}, "inbound_nodes": [[["separable_conv_1_normal_left2_12", 0, 0, {}]]]}, {"name": "separable_conv_1_bn_normal_right2_12", "class_name": "BatchNormalization", "config": {"name": "separable_conv_1_bn_normal_right2_12", "trainable": false, "axis": -1, "momentum": 0.9997, "epsilon": 0.001, "center": true, "scale": true, "beta_initializer": {"class_name": "Zeros", "config": {}}, "gamma_initializer": {"class_name": "Ones", "config": {}}, "moving_mean_initializer": {"class_name": "Zeros", "config": {}}, "moving_variance_initializer": {"class_name": "Ones", "config": {}}, "beta_regularizer": null, "gamma_regularizer": null, "beta_constraint": null, "gamma_constraint": null}, "inbound_nodes": [[["separable_conv_1_normal_right2_12", 0, 0, {}]]]}, {"name": "separable_conv_1_bn_normal_left5_12", "class_name": "BatchNormalization", "config": {"name": "separable_conv_1_bn_normal_left5_12", "trainable": false, "axis": -1, "momentum": 0.9997, "epsilon": 0.001, "center": true, "scale": true, "beta_initializer": {"class_name": "Zeros", "config": {}}, "gamma_initializer": {"class_name": "Ones", "config": {}}, "moving_mean_initializer": {"class_name": "Zeros", "config": {}}, "moving_variance_initializer": {"class_name": "Ones", "config": {}}, "beta_regularizer": null, "gamma_regularizer": null, "beta_constraint": null, "gamma_constraint": null}, "inbound_nodes": [[["separable_conv_1_normal_left5_12", 0, 0, {}]]]}, {"name": "activation_179", "class_name": "Activation", "config": {"name": "activation_179", "trainable": false, "activation": "relu"}, "inbound_nodes": [[["separable_conv_1_bn_normal_left1_12", 0, 0, {}]]]}, {"name": "activation_181", "class_name": "Activation", "config": {"name": "activation_181", "trainable": false, "activation": "relu"}, "inbound_nodes": [[["separable_conv_1_bn_normal_right1_12", 0, 0, {}]]]}, {"name": "activation_183", "class_name": "Activation", "config": {"name": "activation_183", "trainable": false, "activation": "relu"}, "inbound_nodes": [[["separable_conv_1_bn_normal_left2_12", 0, 0, {}]]]}, {"name": "activation_185", "class_name": "Activation", "config": {"name": "activation_185", "trainable": false, "activation": "relu"}, "inbound_nodes": [[["separable_conv_1_bn_normal_right2_12", 0, 0, {}]]]}, {"name": "activation_187", "class_name": "Activation", "config": {"name": "activation_187", "trainable": false, "activation": "relu"}, "inbound_nodes": [[["separable_conv_1_bn_normal_left5_12", 0, 0, {}]]]}, {"name": "separable_conv_2_normal_left1_12", "class_name": "SeparableConv2D", "config": {"name": "separable_conv_2_normal_left1_12", "trainable": false, "filters": 176, "kernel_size": [5, 5], "strides": [1, 1], "padding": "same", "data_format": "channels_last", "dilation_rate": [1, 1], "activation": "linear", "use_bias": false, "bias_initializer": {"class_name": "Zeros", "config": {}}, "bias_regularizer": null, "activity_regularizer": null, "bias_constraint": null, "depth_multiplier": 1, "depthwise_initializer": {"class_name": "VarianceScaling", "config": {"scale": 1.0, "mode": "fan_avg", "distribution": "uniform", "seed": null}}, "pointwise_initializer": {"class_name": "VarianceScaling", "config": {"scale": 1.0, "mode": "fan_avg", "distribution": "uniform", "seed": null}}, "depthwise_regularizer": null, "pointwise_regularizer": null, "depthwise_constraint": null, "pointwise_constraint": null}, "inbound_nodes": [[["activation_179", 0, 0, {}]]]}, {"name": "separable_conv_2_normal_right1_12", "class_name": "SeparableConv2D", "config": {"name": "separable_conv_2_normal_right1_12", "trainable": false, "filters": 176, "kernel_size": [3, 3], "strides": [1, 1], "padding": "same", "data_format": "channels_last", "dilation_rate": [1, 1], "activation": "linear", "use_bias": false, "bias_initializer": {"class_name": "Zeros", "config": {}}, "bias_regularizer": null, "activity_regularizer": null, "bias_constraint": null, "depth_multiplier": 1, "depthwise_initializer": {"class_name": "VarianceScaling", "config": {"scale": 1.0, "mode": "fan_avg", "distribution": "uniform", "seed": null}}, "pointwise_initializer": {"class_name": "VarianceScaling", "config": {"scale": 1.0, "mode": "fan_avg", "distribution": "uniform", "seed": null}}, "depthwise_regularizer": null, "pointwise_regularizer": null, "depthwise_constraint": null, "pointwise_constraint": null}, "inbound_nodes": [[["activation_181", 0, 0, {}]]]}, {"name": "separable_conv_2_normal_left2_12", "class_name": "SeparableConv2D", "config": {"name": "separable_conv_2_normal_left2_12", "trainable": false, "filters": 176, "kernel_size": [5, 5], "strides": [1, 1], "padding": "same", "data_format": "channels_last", "dilation_rate": [1, 1], "activation": "linear", "use_bias": false, "bias_initializer": {"class_name": "Zeros", "config": {}}, "bias_regularizer": null, "activity_regularizer": null, "bias_constraint": null, "depth_multiplier": 1, "depthwise_initializer": {"class_name": "VarianceScaling", "config": {"scale": 1.0, "mode": "fan_avg", "distribution": "uniform", "seed": null}}, "pointwise_initializer": {"class_name": "VarianceScaling", "config": {"scale": 1.0, "mode": "fan_avg", "distribution": "uniform", "seed": null}}, "depthwise_regularizer": null, "pointwise_regularizer": null, "depthwise_constraint": null, "pointwise_constraint": null}, "inbound_nodes": [[["activation_183", 0, 0, {}]]]}, {"name": "separable_conv_2_normal_right2_12", "class_name": "SeparableConv2D", "config": {"name": "separable_conv_2_normal_right2_12", "trainable": false, "filters": 176, "kernel_size": [3, 3], "strides": [1, 1], "padding": "same", "data_format": "channels_last", "dilation_rate": [1, 1], "activation": "linear", "use_bias": false, "bias_initializer": {"class_name": "Zeros", "config": {}}, "bias_regularizer": null, "activity_regularizer": null, "bias_constraint": null, "depth_multiplier": 1, "depthwise_initializer": {"class_name": "VarianceScaling", "config": {"scale": 1.0, "mode": "fan_avg", "distribution": "uniform", "seed": null}}, "pointwise_initializer": {"class_name": "VarianceScaling", "config": {"scale": 1.0, "mode": "fan_avg", "distribution": "uniform", "seed": null}}, "depthwise_regularizer": null, "pointwise_regularizer": null, "depthwise_constraint": null, "pointwise_constraint": null}, "inbound_nodes": [[["activation_185", 0, 0, {}]]]}, {"name": "separable_conv_2_normal_left5_12", "class_name": "SeparableConv2D", "config": {"name": "separable_conv_2_normal_left5_12", "trainable": false, "filters": 176, "kernel_size": [3, 3], "strides": [1, 1], "padding": "same", "data_format": "channels_last", "dilation_rate": [1, 1], "activation": "linear", "use_bias": false, "bias_initializer": {"class_name": "Zeros", "config": {}}, "bias_regularizer": null, "activity_regularizer": null, "bias_constraint": null, "depth_multiplier": 1, "depthwise_initializer": {"class_name": "VarianceScaling", "config": {"scale": 1.0, "mode": "fan_avg", "distribution": "uniform", "seed": null}}, "pointwise_initializer": {"class_name": "VarianceScaling", "config": {"scale": 1.0, "mode": "fan_avg", "distribution": "uniform", "seed": null}}, "depthwise_regularizer": null, "pointwise_regularizer": null, "depthwise_constraint": null, "pointwise_constraint": null}, "inbound_nodes": [[["activation_187", 0, 0, {}]]]}, {"name": "separable_conv_2_bn_normal_left1_12", "class_name": "BatchNormalization", "config": {"name": "separable_conv_2_bn_normal_left1_12", "trainable": false, "axis": -1, "momentum": 0.9997, "epsilon": 0.001, "center": true, "scale": true, "beta_initializer": {"class_name": "Zeros", "config": {}}, "gamma_initializer": {"class_name": "Ones", "config": {}}, "moving_mean_initializer": {"class_name": "Zeros", "config": {}}, "moving_variance_initializer": {"class_name": "Ones", "config": {}}, "beta_regularizer": null, "gamma_regularizer": null, "beta_constraint": null, "gamma_constraint": null}, "inbound_nodes": [[["separable_conv_2_normal_left1_12", 0, 0, {}]]]}, {"name": "separable_conv_2_bn_normal_right1_12", "class_name": "BatchNormalization", "config": {"name": "separable_conv_2_bn_normal_right1_12", "trainable": false, "axis": -1, "momentum": 0.9997, "epsilon": 0.001, "center": true, "scale": true, "beta_initializer": {"class_name": "Zeros", "config": {}}, "gamma_initializer": {"class_name": "Ones", "config": {}}, "moving_mean_initializer": {"class_name": "Zeros", "config": {}}, "moving_variance_initializer": {"class_name": "Ones", "config": {}}, "beta_regularizer": null, "gamma_regularizer": null, "beta_constraint": null, "gamma_constraint": null}, "inbound_nodes": [[["separable_conv_2_normal_right1_12", 0, 0, {}]]]}, {"name": "separable_conv_2_bn_normal_left2_12", "class_name": "BatchNormalization", "config": {"name": "separable_conv_2_bn_normal_left2_12", "trainable": false, "axis": -1, "momentum": 0.9997, "epsilon": 0.001, "center": true, "scale": true, "beta_initializer": {"class_name": "Zeros", "config": {}}, "gamma_initializer": {"class_name": "Ones", "config": {}}, "moving_mean_initializer": {"class_name": "Zeros", "config": {}}, "moving_variance_initializer": {"class_name": "Ones", "config": {}}, "beta_regularizer": null, "gamma_regularizer": null, "beta_constraint": null, "gamma_constraint": null}, "inbound_nodes": [[["separable_conv_2_normal_left2_12", 0, 0, {}]]]}, {"name": "separable_conv_2_bn_normal_right2_12", "class_name": "BatchNormalization", "config": {"name": "separable_conv_2_bn_normal_right2_12", "trainable": false, "axis": -1, "momentum": 0.9997, "epsilon": 0.001, "center": true, "scale": true, "beta_initializer": {"class_name": "Zeros", "config": {}}, "gamma_initializer": {"class_name": "Ones", "config": {}}, "moving_mean_initializer": {"class_name": "Zeros", "config": {}}, "moving_variance_initializer": {"class_name": "Ones", "config": {}}, "beta_regularizer": null, "gamma_regularizer": null, "beta_constraint": null, "gamma_constraint": null}, "inbound_nodes": [[["separable_conv_2_normal_right2_12", 0, 0, {}]]]}, {"name": "normal_left3_12", "class_name": "AveragePooling2D", "config": {"name": "normal_left3_12", "trainable": false, "pool_size": [3, 3], "padding": "same", "strides": [1, 1], "data_format": "channels_last"}, "inbound_nodes": [[["normal_bn_1_12", 0, 0, {}]]]}, {"name": "normal_left4_12", "class_name": "AveragePooling2D", "config": {"name": "normal_left4_12", "trainable": false, "pool_size": [3, 3], "padding": "same", "strides": [1, 1], "data_format": "channels_last"}, "inbound_nodes": [[["adjust_bn_12", 0, 0, {}]]]}, {"name": "normal_right4_12", "class_name": "AveragePooling2D", "config": {"name": "normal_right4_12", "trainable": false, "pool_size": [3, 3], "padding": "same", "strides": [1, 1], "data_format": "channels_last"}, "inbound_nodes": [[["adjust_bn_12", 0, 0, {}]]]}, {"name": "separable_conv_2_bn_normal_left5_12", "class_name": "BatchNormalization", "config": {"name": "separable_conv_2_bn_normal_left5_12", "trainable": false, "axis": -1, "momentum": 0.9997, "epsilon": 0.001, "center": true, "scale": true, "beta_initializer": {"class_name": "Zeros", "config": {}}, "gamma_initializer": {"class_name": "Ones", "config": {}}, "moving_mean_initializer": {"class_name": "Zeros", "config": {}}, "moving_variance_initializer": {"class_name": "Ones", "config": {}}, "beta_regularizer": null, "gamma_regularizer": null, "beta_constraint": null, "gamma_constraint": null}, "inbound_nodes": [[["separable_conv_2_normal_left5_12", 0, 0, {}]]]}, {"name": "normal_add_1_12", "class_name": "Add", "config": {"name": "normal_add_1_12", "trainable": false}, "inbound_nodes": [[["separable_conv_2_bn_normal_left1_12", 0, 0, {}], ["separable_conv_2_bn_normal_right1_12", 0, 0, {}]]]}, {"name": "normal_add_2_12", "class_name": "Add", "config": {"name": "normal_add_2_12", "trainable": false}, "inbound_nodes": [[["separable_conv_2_bn_normal_left2_12", 0, 0, {}], ["separable_conv_2_bn_normal_right2_12", 0, 0, {}]]]}, {"name": "normal_add_3_12", "class_name": "Add", "config": {"name": "normal_add_3_12", "trainable": false}, "inbound_nodes": [[["normal_left3_12", 0, 0, {}], ["adjust_bn_12", 0, 0, {}]]]}, {"name": "normal_add_4_12", "class_name": "Add", "config": {"name": "normal_add_4_12", "trainable": false}, "inbound_nodes": [[["normal_left4_12", 0, 0, {}], ["normal_right4_12", 0, 0, {}]]]}, {"name": "normal_add_5_12", "class_name": "Add", "config": {"name": "normal_add_5_12", "trainable": false}, "inbound_nodes": [[["separable_conv_2_bn_normal_left5_12", 0, 0, {}], ["normal_bn_1_12", 0, 0, {}]]]}, {"name": "normal_concat_12", "class_name": "Concatenate", "config": {"name": "normal_concat_12", "trainable": false, "axis": -1}, "inbound_nodes": [[["adjust_bn_12", 0, 0, {}], ["normal_add_1_12", 0, 0, {}], ["normal_add_2_12", 0, 0, {}], ["normal_add_3_12", 0, 0, {}], ["normal_add_4_12", 0, 0, {}], ["normal_add_5_12", 0, 0, {}]]]}, {"name": "activation_188", "class_name": "Activation", "config": {"name": "activation_188", "trainable": false, "activation": "relu"}, "inbound_nodes": [[["normal_concat_12", 0, 0, {}]]]}], "input_layers": [["input_2", 0, 0]], "output_layers": [["activation_188", 0, 0]]}, "inbound_nodes": [[["input_1", 0, 0, {}]]]}, {"name": "average_pooling2d_1", "class_name": "AveragePooling2D", "config": {"name": "average_pooling2d_1", "trainable": true, "pool_size": [7, 7], "padding": "valid", "strides": [7, 7], "data_format": "channels_last"}, "inbound_nodes": [[["NASNet", 1, 0, {}]]]}, {"name": "reshape_1", "class_name": "Reshape", "config": {"name": "reshape_1", "trainable": true, "target_shape": [-1]}, "inbound_nodes": [[["average_pooling2d_1", 0, 0, {}]]]}, {"name": "dense_1", "class_name": "Dense", "config": {"name": "dense_1", "trainable": true, "units": 512, "activation": "relu", "use_bias": true, "kernel_initializer": {"class_name": "VarianceScaling", "config": {"scale": 1.0, "mode": "fan_avg", "distribution": "uniform", "seed": null}}, "bias_initializer": {"class_name": "Zeros", "config": {}}, "kernel_regularizer": null, "bias_regularizer": null, "activity_regularizer": null, "kernel_constraint": null, "bias_constraint": null}, "inbound_nodes": [[["reshape_1", 0, 0, {}]]]}, {"name": "input_3", "class_name": "InputLayer", "config": {"batch_input_shape": [null, null], "dtype": "int32", "sparse": false, "name": "input_3"}, "inbound_nodes": []}, {"name": "lambda_1", "class_name": "Lambda", "config": {"name": "lambda_1", "trainable": true, "function": ["4wEAAAAAAAAAAQAAAAQAAABTAAAAcwwAAAB0AHwAZAFkAo0CUwApA07pAQAAACkB2gRheGlzKQHa\nC2V4cGFuZF9kaW1zKQHaAXipAHIFAAAA+jlFOlxQeXRob25cU2NlbmVfRGVzY3JpcHRpb25fU2hv\nd19hbmRfVGVsbFxpbTJ0eHRfbW9kZWwucHnaCDxsYW1iZGE+HwAAAPMAAAAA\n", null, null], "function_type": "lambda", "output_shape": null, "output_shape_type": "raw", "arguments": {}}, "inbound_nodes": [[["dense_1", 0, 0, {}]]]}, {"name": "embedding_1", "class_name": "Embedding", "config": {"name": "embedding_1", "trainable": true, "batch_input_shape": [null, null], "dtype": "float32", "input_dim": 9568, "output_dim": 512, "embeddings_initializer": {"class_name": "RandomUniform", "config": {"minval": -0.05, "maxval": 0.05, "seed": null}}, "embeddings_regularizer": null, "activity_regularizer": null, "embeddings_constraint": null, "mask_zero": false, "input_length": null}, "inbound_nodes": [[["input_3", 0, 0, {}]]]}, {"name": "concatenate_5", "class_name": "Concatenate", "config": {"name": "concatenate_5", "trainable": true, "axis": 1}, "inbound_nodes": [[["lambda_1", 0, 0, {}], ["embedding_1", 0, 0, {}]]]}, {"name": "lstm_1", "class_name": "LSTM", "config": {"name": "lstm_1", "trainable": true, "return_sequences": true, "return_state": false, "go_backwards": false, "stateful": false, "unroll": false, "units": 512, "activation": "tanh", "recurrent_activation": "hard_sigmoid", "use_bias": true, "kernel_initializer": {"class_name": "VarianceScaling", "config": {"scale": 1.0, "mode": "fan_avg", "distribution": "uniform", "seed": null}}, "recurrent_initializer": {"class_name": "Orthogonal", "config": {"gain": 1.0, "seed": null}}, "bias_initializer": {"class_name": "Zeros", "config": {}}, "unit_forget_bias": true, "kernel_regularizer": null, "recurrent_regularizer": null, "bias_regularizer": null, "activity_regularizer": null, "kernel_constraint": null, "recurrent_constraint": null, "bias_constraint": null, "dropout": 0.0, "recurrent_dropout": 0.0, "implementation": 1}, "inbound_nodes": [[["concatenate_5", 0, 0, {}]]]}, {"name": "time_distributed_1", "class_name": "TimeDistributed", "config": {"name": "time_distributed_1", "trainable": true, "layer": {"class_name": "Dense", "config": {"name": "dense_2", "trainable": true, "units": 9568, "activation": "softmax", "use_bias": true, "kernel_initializer": {"class_name": "VarianceScaling", "config": {"scale": 1.0, "mode": "fan_avg", "distribution": "uniform", "seed": null}}, "bias_initializer": {"class_name": "Zeros", "config": {}}, "kernel_regularizer": null, "bias_regularizer": null, "activity_regularizer": null, "kernel_constraint": null, "bias_constraint": null}}}, "inbound_nodes": [[["lstm_1", 0, 0, {}]]]}], "input_layers": [["input_1", 0, 0], ["input_3", 0, 0]], "output_layers": [["time_distributed_1", 0, 0]]}, "keras_version": "2.2.2", "backend": "tensorflow"}